<?xml version="1.0" ?>
<net name="saved_model" version="10">
	<layers>
		<layer id="0" name="input" type="Parameter" version="opset1">
			<data shape="1, 3, 192, 256" element_type="f32"/>
			<output>
				<port id="0" precision="FP32" names="input:0">
					<dim>1</dim>
					<dim>3</dim>
					<dim>192</dim>
					<dim>256</dim>
				</port>
			</output>
		</layer>
		<layer id="1" name="data_mul_11620" type="Const" version="opset1">
			<data element_type="f32" shape="1, 1, 1, 1" offset="0" size="4"/>
			<output>
				<port id="0" precision="FP32">
					<dim>1</dim>
					<dim>1</dim>
					<dim>1</dim>
					<dim>1</dim>
				</port>
			</output>
		</layer>
		<layer id="2" name="truediv_1_StatefulPartitionedCall/truediv_1_truediv_1/y_StatefulPartitionedCall/truediv_1/y1/Fused_Mul_" type="Multiply" version="opset1">
			<data auto_broadcast="numpy"/>
			<input>
				<port id="0" precision="FP32">
					<dim>1</dim>
					<dim>3</dim>
					<dim>192</dim>
					<dim>256</dim>
				</port>
				<port id="1" precision="FP32">
					<dim>1</dim>
					<dim>1</dim>
					<dim>1</dim>
					<dim>1</dim>
				</port>
			</input>
			<output>
				<port id="2" precision="FP32">
					<dim>1</dim>
					<dim>3</dim>
					<dim>192</dim>
					<dim>256</dim>
				</port>
			</output>
		</layer>
		<layer id="3" name="data_add_1162229519" type="Const" version="opset1">
			<data element_type="f32" shape="1, 3, 1, 1" offset="4" size="12"/>
			<output>
				<port id="0" precision="FP32">
					<dim>1</dim>
					<dim>3</dim>
					<dim>1</dim>
					<dim>1</dim>
				</port>
			</output>
		</layer>
		<layer id="4" name="sub_StatefulPartitionedCall/sub/Fused_Add_" type="Add" version="opset1">
			<data auto_broadcast="numpy"/>
			<input>
				<port id="0" precision="FP32">
					<dim>1</dim>
					<dim>3</dim>
					<dim>192</dim>
					<dim>256</dim>
				</port>
				<port id="1" precision="FP32">
					<dim>1</dim>
					<dim>3</dim>
					<dim>1</dim>
					<dim>1</dim>
				</port>
			</input>
			<output>
				<port id="2" precision="FP32" names="sub_1_StatefulPartitionedCall/sub_1:0">
					<dim>1</dim>
					<dim>3</dim>
					<dim>192</dim>
					<dim>256</dim>
				</port>
			</output>
		</layer>
		<layer id="5" name="Conv2D/filter" type="Const" version="opset1">
			<data element_type="f32" shape="48, 3, 3, 3" offset="16" size="5184"/>
			<output>
				<port id="0" precision="FP32" names="Conv2D/filter:0">
					<dim>48</dim>
					<dim>3</dim>
					<dim>3</dim>
					<dim>3</dim>
				</port>
			</output>
		</layer>
		<layer id="6" name="Conv2D" type="Convolution" version="opset1">
			<data strides="2, 2" dilations="1, 1" pads_begin="0, 0" pads_end="1, 1" auto_pad="same_upper"/>
			<input>
				<port id="0" precision="FP32">
					<dim>1</dim>
					<dim>3</dim>
					<dim>192</dim>
					<dim>256</dim>
				</port>
				<port id="1" precision="FP32">
					<dim>48</dim>
					<dim>3</dim>
					<dim>3</dim>
					<dim>3</dim>
				</port>
			</input>
			<output>
				<port id="2" precision="FP32" names="Conv2D:0">
					<dim>1</dim>
					<dim>48</dim>
					<dim>96</dim>
					<dim>128</dim>
				</port>
			</output>
		</layer>
		<layer id="7" name="Add/y" type="Const" version="opset1">
			<data element_type="f32" shape="1, 48, 1, 1" offset="5200" size="192"/>
			<output>
				<port id="0" precision="FP32" names="Add/y:0">
					<dim>1</dim>
					<dim>48</dim>
					<dim>1</dim>
					<dim>1</dim>
				</port>
			</output>
		</layer>
		<layer id="8" name="Add" type="Add" version="opset1">
			<data auto_broadcast="numpy"/>
			<input>
				<port id="0" precision="FP32">
					<dim>1</dim>
					<dim>48</dim>
					<dim>96</dim>
					<dim>128</dim>
				</port>
				<port id="1" precision="FP32">
					<dim>1</dim>
					<dim>48</dim>
					<dim>1</dim>
					<dim>1</dim>
				</port>
			</input>
			<output>
				<port id="2" precision="FP32" names="Add:0">
					<dim>1</dim>
					<dim>48</dim>
					<dim>96</dim>
					<dim>128</dim>
				</port>
			</output>
		</layer>
		<layer id="9" name="center_net_mobile_net_v2fpn_feature_extractor/model_1/model/Conv1_relu/Relu6_StatefulPartitionedCall/center_net_mobile_net_v2fpn_feature_extractor/model_1/model/Conv1_relu/Relu6_center_net_mobile_net_v2fpn_feature_extractor/model_1/model/bn_Conv1/FusedBatchNormV3_StatefulPartitionedCall/center_net_mobile_net_v2fpn_feature_extractor/model_1/model/bn_Conv1/FusedBatchNormV3_center_net_mobile_net_v2fpn_feature_extractor/model_1/model/expanded_conv_depthwise_BN/FusedBatchNormV3_StatefulPartitionedCall/center_net_mobile_net_v2fpn_feature_extractor/model_1/model/expanded_conv_depthwise_BN/FusedBatchNormV3_center_net_mobile_net_v2fpn_feature_extractor/model_1/model/expanded_conv_depthwise/depthwise_StatefulPartitionedCall/center_net_mobile_net_v2fpn_feature_extractor/model_1/model/expanded_conv_depthwise/depthwise_center_net_mobile_net_v2fpn_feature_extractor/model_1/model/block_5_project/Conv2D_StatefulPartitionedCall/center_net_mobile_net_v2fpn_feature_extractor/model_1/model/block_5_project/Conv2D_center_net_mobile_net_v2fpn_feature_extractor/model_1/model/Conv1/Conv2D_StatefulPartitionedCall/center_net_mobile_net_v2fpn_feature_extractor/model_1/model/Conv1/Conv2D" type="Clamp" version="opset1">
			<data min="0" max="6"/>
			<input>
				<port id="0" precision="FP32">
					<dim>1</dim>
					<dim>48</dim>
					<dim>96</dim>
					<dim>128</dim>
				</port>
			</input>
			<output>
				<port id="1" precision="FP32" names="center_net_mobile_net_v2fpn_feature_extractor/model_1/model/Conv1_relu/Relu6_StatefulPartitionedCall/center_net_mobile_net_v2fpn_feature_extractor/model_1/model/Conv1_relu/Relu6_center_net_mobile_net_v2fpn_feature_extractor/model_1/model/bn_Conv1/FusedBatchNormV3_StatefulPartitionedCall/center_net_mobile_net_v2fpn_feature_extractor/model_1/model/bn_Conv1/FusedBatchNormV3_center_net_mobile_net_v2fpn_feature_extractor/model_1/model/expanded_conv_depthwise_BN/FusedBatchNormV3_StatefulPartitionedCall/center_net_mobile_net_v2fpn_feature_extractor/model_1/model/expanded_conv_depthwise_BN/FusedBatchNormV3_center_net_mobile_net_v2fpn_feature_extractor/model_1/model/expanded_conv_depthwise/depthwise_StatefulPartitionedCall/center_net_mobile_net_v2fpn_feature_extractor/model_1/model/expanded_conv_depthwise/depthwise_center_net_mobile_net_v2fpn_feature_extractor/model_1/model/block_5_project/Conv2D_StatefulPartitionedCall/center_net_mobile_net_v2fpn_feature_extractor/model_1/model/block_5_project/Conv2D_center_net_mobile_net_v2fpn_feature_extractor/model_1/model/Conv1/Conv2D_StatefulPartitionedCall/center_net_mobile_net_v2fpn_feature_extractor/model_1/model/Conv1/Conv2D:0">
					<dim>1</dim>
					<dim>48</dim>
					<dim>96</dim>
					<dim>128</dim>
				</port>
			</output>
		</layer>
		<layer id="10" name="depthwise/filter_in" type="Const" version="opset1">
			<data element_type="f32" shape="48, 1, 1, 3, 3" offset="5392" size="1728"/>
			<output>
				<port id="0" precision="FP32" names="depthwise/filter_in:0">
					<dim>48</dim>
					<dim>1</dim>
					<dim>1</dim>
					<dim>3</dim>
					<dim>3</dim>
				</port>
			</output>
		</layer>
		<layer id="11" name="depthwise" type="GroupConvolution" version="opset1">
			<data strides="1, 1" pads_begin="1, 1" pads_end="1, 1" dilations="1, 1" auto_pad="same_upper"/>
			<input>
				<port id="0" precision="FP32">
					<dim>1</dim>
					<dim>48</dim>
					<dim>96</dim>
					<dim>128</dim>
				</port>
				<port id="1" precision="FP32">
					<dim>48</dim>
					<dim>1</dim>
					<dim>1</dim>
					<dim>3</dim>
					<dim>3</dim>
				</port>
			</input>
			<output>
				<port id="2" precision="FP32" names="depthwise:0">
					<dim>1</dim>
					<dim>48</dim>
					<dim>96</dim>
					<dim>128</dim>
				</port>
			</output>
		</layer>
		<layer id="12" name="Add_1/y" type="Const" version="opset1">
			<data element_type="f32" shape="1, 48, 1, 1" offset="7120" size="192"/>
			<output>
				<port id="0" precision="FP32" names="Add_1/y:0">
					<dim>1</dim>
					<dim>48</dim>
					<dim>1</dim>
					<dim>1</dim>
				</port>
			</output>
		</layer>
		<layer id="13" name="Add_1" type="Add" version="opset1">
			<data auto_broadcast="numpy"/>
			<input>
				<port id="0" precision="FP32">
					<dim>1</dim>
					<dim>48</dim>
					<dim>96</dim>
					<dim>128</dim>
				</port>
				<port id="1" precision="FP32">
					<dim>1</dim>
					<dim>48</dim>
					<dim>1</dim>
					<dim>1</dim>
				</port>
			</input>
			<output>
				<port id="2" precision="FP32" names="Add_1:0">
					<dim>1</dim>
					<dim>48</dim>
					<dim>96</dim>
					<dim>128</dim>
				</port>
			</output>
		</layer>
		<layer id="14" name="center_net_mobile_net_v2fpn_feature_extractor/model_1/model/expanded_conv_depthwise_relu/Relu6_StatefulPartitionedCall/center_net_mobile_net_v2fpn_feature_extractor/model_1/model/expanded_conv_depthwise_relu/Relu6_center_net_mobile_net_v2fpn_feature_extractor/model_1/model/expanded_conv_depthwise_BN/FusedBatchNormV3_StatefulPartitionedCall/center_net_mobile_net_v2fpn_feature_extractor/model_1/model/expanded_conv_depthwise_BN/FusedBatchNormV3_center_net_mobile_net_v2fpn_feature_extractor/model_1/model/expanded_conv_depthwise/depthwise_StatefulPartitionedCall/center_net_mobile_net_v2fpn_feature_extractor/model_1/model/expanded_conv_depthwise/depthwise_center_net_mobile_net_v2fpn_feature_extractor/model_1/model/block_5_project/Conv2D_StatefulPartitionedCall/center_net_mobile_net_v2fpn_feature_extractor/model_1/model/block_5_project/Conv2D" type="Clamp" version="opset1">
			<data min="0" max="6"/>
			<input>
				<port id="0" precision="FP32">
					<dim>1</dim>
					<dim>48</dim>
					<dim>96</dim>
					<dim>128</dim>
				</port>
			</input>
			<output>
				<port id="1" precision="FP32" names="center_net_mobile_net_v2fpn_feature_extractor/model_1/model/expanded_conv_depthwise_relu/Relu6_StatefulPartitionedCall/center_net_mobile_net_v2fpn_feature_extractor/model_1/model/expanded_conv_depthwise_relu/Relu6_center_net_mobile_net_v2fpn_feature_extractor/model_1/model/expanded_conv_depthwise_BN/FusedBatchNormV3_StatefulPartitionedCall/center_net_mobile_net_v2fpn_feature_extractor/model_1/model/expanded_conv_depthwise_BN/FusedBatchNormV3_center_net_mobile_net_v2fpn_feature_extractor/model_1/model/expanded_conv_depthwise/depthwise_StatefulPartitionedCall/center_net_mobile_net_v2fpn_feature_extractor/model_1/model/expanded_conv_depthwise/depthwise_center_net_mobile_net_v2fpn_feature_extractor/model_1/model/block_5_project/Conv2D_StatefulPartitionedCall/center_net_mobile_net_v2fpn_feature_extractor/model_1/model/block_5_project/Conv2D:0">
					<dim>1</dim>
					<dim>48</dim>
					<dim>96</dim>
					<dim>128</dim>
				</port>
			</output>
		</layer>
		<layer id="15" name="Conv2D_1/filter" type="Const" version="opset1">
			<data element_type="f32" shape="24, 48, 1, 1" offset="7312" size="4608"/>
			<output>
				<port id="0" precision="FP32" names="Conv2D_1/filter:0">
					<dim>24</dim>
					<dim>48</dim>
					<dim>1</dim>
					<dim>1</dim>
				</port>
			</output>
		</layer>
		<layer id="16" name="Conv2D_1" type="Convolution" version="opset1">
			<data strides="1, 1" dilations="1, 1" pads_begin="0, 0" pads_end="0, 0" auto_pad="same_upper"/>
			<input>
				<port id="0" precision="FP32">
					<dim>1</dim>
					<dim>48</dim>
					<dim>96</dim>
					<dim>128</dim>
				</port>
				<port id="1" precision="FP32">
					<dim>24</dim>
					<dim>48</dim>
					<dim>1</dim>
					<dim>1</dim>
				</port>
			</input>
			<output>
				<port id="2" precision="FP32" names="Conv2D_1:0">
					<dim>1</dim>
					<dim>24</dim>
					<dim>96</dim>
					<dim>128</dim>
				</port>
			</output>
		</layer>
		<layer id="17" name="center_net_mobile_net_v2fpn_feature_extractor/model_1/model/expanded_conv_project_BN/FusedBatchNormV3_StatefulPartitionedCall/center_net_mobile_net_v2fpn_feature_extractor/model_1/model/expanded_conv_project_BN/FusedBatchNormV3_kpt_regress_0/separable_conv2d_7/separable_conv2d/depthwise_StatefulPartitionedCall/kpt_regress_0/separable_conv2d_7/separable_conv2d/depthwise_center_net_mobile_net_v2fpn_feature_extractor/model_1/model/expanded_conv_project/Conv2D_StatefulPartitionedCall/center_net_mobile_net_v2fpn_feature_extractor/model_1/model/expanded_conv_project/Conv2D1/y" type="Const" version="opset1">
			<data element_type="f32" shape="1, 24, 1, 1" offset="11920" size="96"/>
			<output>
				<port id="0" precision="FP32" names="center_net_mobile_net_v2fpn_feature_extractor/model_1/model/expanded_conv_project_BN/FusedBatchNormV3_StatefulPartitionedCall/center_net_mobile_net_v2fpn_feature_extractor/model_1/model/expanded_conv_project_BN/FusedBatchNormV3_kpt_regress_0/separable_conv2d_7/separable_conv2d/depthwise_StatefulPartitionedCall/kpt_regress_0/separable_conv2d_7/separable_conv2d/depthwise_center_net_mobile_net_v2fpn_feature_extractor/model_1/model/expanded_conv_project/Conv2D_StatefulPartitionedCall/center_net_mobile_net_v2fpn_feature_extractor/model_1/model/expanded_conv_project/Conv2D1/y:0">
					<dim>1</dim>
					<dim>24</dim>
					<dim>1</dim>
					<dim>1</dim>
				</port>
			</output>
		</layer>
		<layer id="18" name="center_net_mobile_net_v2fpn_feature_extractor/model_1/model/expanded_conv_project_BN/FusedBatchNormV3_StatefulPartitionedCall/center_net_mobile_net_v2fpn_feature_extractor/model_1/model/expanded_conv_project_BN/FusedBatchNormV3_kpt_regress_0/separable_conv2d_7/separable_conv2d/depthwise_StatefulPartitionedCall/kpt_regress_0/separable_conv2d_7/separable_conv2d/depthwise_center_net_mobile_net_v2fpn_feature_extractor/model_1/model/expanded_conv_project/Conv2D_StatefulPartitionedCall/center_net_mobile_net_v2fpn_feature_extractor/model_1/model/expanded_conv_project/Conv2D1" type="Add" version="opset1">
			<data auto_broadcast="numpy"/>
			<input>
				<port id="0" precision="FP32">
					<dim>1</dim>
					<dim>24</dim>
					<dim>96</dim>
					<dim>128</dim>
				</port>
				<port id="1" precision="FP32">
					<dim>1</dim>
					<dim>24</dim>
					<dim>1</dim>
					<dim>1</dim>
				</port>
			</input>
			<output>
				<port id="2" precision="FP32" names="center_net_mobile_net_v2fpn_feature_extractor/model_1/model/expanded_conv_project_BN/FusedBatchNormV3_StatefulPartitionedCall/center_net_mobile_net_v2fpn_feature_extractor/model_1/model/expanded_conv_project_BN/FusedBatchNormV3_kpt_regress_0/separable_conv2d_7/separable_conv2d/depthwise_StatefulPartitionedCall/kpt_regress_0/separable_conv2d_7/separable_conv2d/depthwise_center_net_mobile_net_v2fpn_feature_extractor/model_1/model/expanded_conv_project/Conv2D_StatefulPartitionedCall/center_net_mobile_net_v2fpn_feature_extractor/model_1/model/expanded_conv_project/Conv2D1:0">
					<dim>1</dim>
					<dim>24</dim>
					<dim>96</dim>
					<dim>128</dim>
				</port>
			</output>
		</layer>
		<layer id="19" name="Conv2D_2/filter" type="Const" version="opset1">
			<data element_type="f32" shape="144, 24, 1, 1" offset="12016" size="13824"/>
			<output>
				<port id="0" precision="FP32" names="Conv2D_2/filter:0">
					<dim>144</dim>
					<dim>24</dim>
					<dim>1</dim>
					<dim>1</dim>
				</port>
			</output>
		</layer>
		<layer id="20" name="Conv2D_2" type="Convolution" version="opset1">
			<data strides="1, 1" dilations="1, 1" pads_begin="0, 0" pads_end="0, 0" auto_pad="same_upper"/>
			<input>
				<port id="0" precision="FP32">
					<dim>1</dim>
					<dim>24</dim>
					<dim>96</dim>
					<dim>128</dim>
				</port>
				<port id="1" precision="FP32">
					<dim>144</dim>
					<dim>24</dim>
					<dim>1</dim>
					<dim>1</dim>
				</port>
			</input>
			<output>
				<port id="2" precision="FP32" names="Conv2D_2:0">
					<dim>1</dim>
					<dim>144</dim>
					<dim>96</dim>
					<dim>128</dim>
				</port>
			</output>
		</layer>
		<layer id="21" name="Add_2/y" type="Const" version="opset1">
			<data element_type="f32" shape="1, 144, 1, 1" offset="25840" size="576"/>
			<output>
				<port id="0" precision="FP32" names="Add_2/y:0">
					<dim>1</dim>
					<dim>144</dim>
					<dim>1</dim>
					<dim>1</dim>
				</port>
			</output>
		</layer>
		<layer id="22" name="Add_2" type="Add" version="opset1">
			<data auto_broadcast="numpy"/>
			<input>
				<port id="0" precision="FP32">
					<dim>1</dim>
					<dim>144</dim>
					<dim>96</dim>
					<dim>128</dim>
				</port>
				<port id="1" precision="FP32">
					<dim>1</dim>
					<dim>144</dim>
					<dim>1</dim>
					<dim>1</dim>
				</port>
			</input>
			<output>
				<port id="2" precision="FP32" names="Add_2:0">
					<dim>1</dim>
					<dim>144</dim>
					<dim>96</dim>
					<dim>128</dim>
				</port>
			</output>
		</layer>
		<layer id="23" name="center_net_mobile_net_v2fpn_feature_extractor/model_1/model/block_1_expand_relu/Relu6_StatefulPartitionedCall/center_net_mobile_net_v2fpn_feature_extractor/model_1/model/block_1_expand_relu/Relu6_center_net_mobile_net_v2fpn_feature_extractor/model_1/model/block_1_expand_BN/FusedBatchNormV3_StatefulPartitionedCall/center_net_mobile_net_v2fpn_feature_extractor/model_1/model/block_1_expand_BN/FusedBatchNormV3_center_net_mobile_net_v2fpn_feature_extractor/model_1/model/block_1_depthwise_BN/FusedBatchNormV3_StatefulPartitionedCall/center_net_mobile_net_v2fpn_feature_extractor/model_1/model/block_1_depthwise_BN/FusedBatchNormV3_center_net_mobile_net_v2fpn_feature_extractor/model_1/model/block_1_depthwise/depthwise_StatefulPartitionedCall/center_net_mobile_net_v2fpn_feature_extractor/model_1/model/block_1_depthwise/depthwise_center_net_mobile_net_v2fpn_feature_extractor/model_1/model/block_12_project/Conv2D_StatefulPartitionedCall/center_net_mobile_net_v2fpn_feature_extractor/model_1/model/block_12_project/Conv2D_center_net_mobile_net_v2fpn_feature_extractor/model_1/model/block_1_expand/Conv2D_StatefulPartitionedCall/center_net_mobile_net_v2fpn_feature_extractor/model_1/model/block_1_expand/Conv2D" type="Clamp" version="opset1">
			<data min="0" max="6"/>
			<input>
				<port id="0" precision="FP32">
					<dim>1</dim>
					<dim>144</dim>
					<dim>96</dim>
					<dim>128</dim>
				</port>
			</input>
			<output>
				<port id="1" precision="FP32" names="center_net_mobile_net_v2fpn_feature_extractor/model_1/model/block_1_expand_relu/Relu6_StatefulPartitionedCall/center_net_mobile_net_v2fpn_feature_extractor/model_1/model/block_1_expand_relu/Relu6_center_net_mobile_net_v2fpn_feature_extractor/model_1/model/block_1_expand_BN/FusedBatchNormV3_StatefulPartitionedCall/center_net_mobile_net_v2fpn_feature_extractor/model_1/model/block_1_expand_BN/FusedBatchNormV3_center_net_mobile_net_v2fpn_feature_extractor/model_1/model/block_1_depthwise_BN/FusedBatchNormV3_StatefulPartitionedCall/center_net_mobile_net_v2fpn_feature_extractor/model_1/model/block_1_depthwise_BN/FusedBatchNormV3_center_net_mobile_net_v2fpn_feature_extractor/model_1/model/block_1_depthwise/depthwise_StatefulPartitionedCall/center_net_mobile_net_v2fpn_feature_extractor/model_1/model/block_1_depthwise/depthwise_center_net_mobile_net_v2fpn_feature_extractor/model_1/model/block_12_project/Conv2D_StatefulPartitionedCall/center_net_mobile_net_v2fpn_feature_extractor/model_1/model/block_12_project/Conv2D_center_net_mobile_net_v2fpn_feature_extractor/model_1/model/block_1_expand/Conv2D_StatefulPartitionedCall/center_net_mobile_net_v2fpn_feature_extractor/model_1/model/block_1_expand/Conv2D:0">
					<dim>1</dim>
					<dim>144</dim>
					<dim>96</dim>
					<dim>128</dim>
				</port>
			</output>
		</layer>
		<layer id="24" name="depthwise_1/filter_in" type="Const" version="opset1">
			<data element_type="f32" shape="144, 1, 1, 3, 3" offset="26416" size="5184"/>
			<output>
				<port id="0" precision="FP32" names="depthwise_1/filter_in:0">
					<dim>144</dim>
					<dim>1</dim>
					<dim>1</dim>
					<dim>3</dim>
					<dim>3</dim>
				</port>
			</output>
		</layer>
		<layer id="25" name="depthwise_1" type="GroupConvolution" version="opset1">
			<data strides="2, 2" pads_begin="0, 0" pads_end="1, 1" dilations="1, 1" auto_pad="same_upper"/>
			<input>
				<port id="0" precision="FP32">
					<dim>1</dim>
					<dim>144</dim>
					<dim>96</dim>
					<dim>128</dim>
				</port>
				<port id="1" precision="FP32">
					<dim>144</dim>
					<dim>1</dim>
					<dim>1</dim>
					<dim>3</dim>
					<dim>3</dim>
				</port>
			</input>
			<output>
				<port id="2" precision="FP32" names="depthwise_1:0">
					<dim>1</dim>
					<dim>144</dim>
					<dim>48</dim>
					<dim>64</dim>
				</port>
			</output>
		</layer>
		<layer id="26" name="Add_3/y" type="Const" version="opset1">
			<data element_type="f32" shape="1, 144, 1, 1" offset="31600" size="576"/>
			<output>
				<port id="0" precision="FP32" names="Add_3/y:0">
					<dim>1</dim>
					<dim>144</dim>
					<dim>1</dim>
					<dim>1</dim>
				</port>
			</output>
		</layer>
		<layer id="27" name="Add_3" type="Add" version="opset1">
			<data auto_broadcast="numpy"/>
			<input>
				<port id="0" precision="FP32">
					<dim>1</dim>
					<dim>144</dim>
					<dim>48</dim>
					<dim>64</dim>
				</port>
				<port id="1" precision="FP32">
					<dim>1</dim>
					<dim>144</dim>
					<dim>1</dim>
					<dim>1</dim>
				</port>
			</input>
			<output>
				<port id="2" precision="FP32" names="Add_3:0">
					<dim>1</dim>
					<dim>144</dim>
					<dim>48</dim>
					<dim>64</dim>
				</port>
			</output>
		</layer>
		<layer id="28" name="center_net_mobile_net_v2fpn_feature_extractor/model_1/model/block_1_depthwise_relu/Relu6_StatefulPartitionedCall/center_net_mobile_net_v2fpn_feature_extractor/model_1/model/block_1_depthwise_relu/Relu6_center_net_mobile_net_v2fpn_feature_extractor/model_1/model/block_1_depthwise_BN/FusedBatchNormV3_StatefulPartitionedCall/center_net_mobile_net_v2fpn_feature_extractor/model_1/model/block_1_depthwise_BN/FusedBatchNormV3_center_net_mobile_net_v2fpn_feature_extractor/model_1/model/block_1_depthwise/depthwise_StatefulPartitionedCall/center_net_mobile_net_v2fpn_feature_extractor/model_1/model/block_1_depthwise/depthwise_center_net_mobile_net_v2fpn_feature_extractor/model_1/model/block_12_project/Conv2D_StatefulPartitionedCall/center_net_mobile_net_v2fpn_feature_extractor/model_1/model/block_12_project/Conv2D" type="Clamp" version="opset1">
			<data min="0" max="6"/>
			<input>
				<port id="0" precision="FP32">
					<dim>1</dim>
					<dim>144</dim>
					<dim>48</dim>
					<dim>64</dim>
				</port>
			</input>
			<output>
				<port id="1" precision="FP32" names="center_net_mobile_net_v2fpn_feature_extractor/model_1/model/block_1_depthwise_relu/Relu6_StatefulPartitionedCall/center_net_mobile_net_v2fpn_feature_extractor/model_1/model/block_1_depthwise_relu/Relu6_center_net_mobile_net_v2fpn_feature_extractor/model_1/model/block_1_depthwise_BN/FusedBatchNormV3_StatefulPartitionedCall/center_net_mobile_net_v2fpn_feature_extractor/model_1/model/block_1_depthwise_BN/FusedBatchNormV3_center_net_mobile_net_v2fpn_feature_extractor/model_1/model/block_1_depthwise/depthwise_StatefulPartitionedCall/center_net_mobile_net_v2fpn_feature_extractor/model_1/model/block_1_depthwise/depthwise_center_net_mobile_net_v2fpn_feature_extractor/model_1/model/block_12_project/Conv2D_StatefulPartitionedCall/center_net_mobile_net_v2fpn_feature_extractor/model_1/model/block_12_project/Conv2D:0">
					<dim>1</dim>
					<dim>144</dim>
					<dim>48</dim>
					<dim>64</dim>
				</port>
			</output>
		</layer>
		<layer id="29" name="Conv2D_3/filter" type="Const" version="opset1">
			<data element_type="f32" shape="40, 144, 1, 1" offset="32176" size="23040"/>
			<output>
				<port id="0" precision="FP32" names="Conv2D_3/filter:0">
					<dim>40</dim>
					<dim>144</dim>
					<dim>1</dim>
					<dim>1</dim>
				</port>
			</output>
		</layer>
		<layer id="30" name="Conv2D_3" type="Convolution" version="opset1">
			<data strides="1, 1" dilations="1, 1" pads_begin="0, 0" pads_end="0, 0" auto_pad="same_upper"/>
			<input>
				<port id="0" precision="FP32">
					<dim>1</dim>
					<dim>144</dim>
					<dim>48</dim>
					<dim>64</dim>
				</port>
				<port id="1" precision="FP32">
					<dim>40</dim>
					<dim>144</dim>
					<dim>1</dim>
					<dim>1</dim>
				</port>
			</input>
			<output>
				<port id="2" precision="FP32" names="Conv2D_3:0">
					<dim>1</dim>
					<dim>40</dim>
					<dim>48</dim>
					<dim>64</dim>
				</port>
			</output>
		</layer>
		<layer id="31" name="center_net_mobile_net_v2fpn_feature_extractor/model_1/model/block_1_project_BN/FusedBatchNormV3_StatefulPartitionedCall/center_net_mobile_net_v2fpn_feature_extractor/model_1/model/block_1_project_BN/FusedBatchNormV3_center_net_mobile_net_v2fpn_feature_extractor/model_1/model/block_2_project/Conv2D_StatefulPartitionedCall/center_net_mobile_net_v2fpn_feature_extractor/model_1/model/block_2_project/Conv2D_center_net_mobile_net_v2fpn_feature_extractor/model_1/model/block_1_project/Conv2D_StatefulPartitionedCall/center_net_mobile_net_v2fpn_feature_extractor/model_1/model/block_1_project/Conv2D1/y" type="Const" version="opset1">
			<data element_type="f32" shape="1, 40, 1, 1" offset="55216" size="160"/>
			<output>
				<port id="0" precision="FP32" names="center_net_mobile_net_v2fpn_feature_extractor/model_1/model/block_1_project_BN/FusedBatchNormV3_StatefulPartitionedCall/center_net_mobile_net_v2fpn_feature_extractor/model_1/model/block_1_project_BN/FusedBatchNormV3_center_net_mobile_net_v2fpn_feature_extractor/model_1/model/block_2_project/Conv2D_StatefulPartitionedCall/center_net_mobile_net_v2fpn_feature_extractor/model_1/model/block_2_project/Conv2D_center_net_mobile_net_v2fpn_feature_extractor/model_1/model/block_1_project/Conv2D_StatefulPartitionedCall/center_net_mobile_net_v2fpn_feature_extractor/model_1/model/block_1_project/Conv2D1/y:0">
					<dim>1</dim>
					<dim>40</dim>
					<dim>1</dim>
					<dim>1</dim>
				</port>
			</output>
		</layer>
		<layer id="32" name="center_net_mobile_net_v2fpn_feature_extractor/model_1/model/block_1_project_BN/FusedBatchNormV3_StatefulPartitionedCall/center_net_mobile_net_v2fpn_feature_extractor/model_1/model/block_1_project_BN/FusedBatchNormV3_center_net_mobile_net_v2fpn_feature_extractor/model_1/model/block_2_project/Conv2D_StatefulPartitionedCall/center_net_mobile_net_v2fpn_feature_extractor/model_1/model/block_2_project/Conv2D_center_net_mobile_net_v2fpn_feature_extractor/model_1/model/block_1_project/Conv2D_StatefulPartitionedCall/center_net_mobile_net_v2fpn_feature_extractor/model_1/model/block_1_project/Conv2D1" type="Add" version="opset1">
			<data auto_broadcast="numpy"/>
			<input>
				<port id="0" precision="FP32">
					<dim>1</dim>
					<dim>40</dim>
					<dim>48</dim>
					<dim>64</dim>
				</port>
				<port id="1" precision="FP32">
					<dim>1</dim>
					<dim>40</dim>
					<dim>1</dim>
					<dim>1</dim>
				</port>
			</input>
			<output>
				<port id="2" precision="FP32" names="center_net_mobile_net_v2fpn_feature_extractor/model_1/model/block_1_project_BN/FusedBatchNormV3_StatefulPartitionedCall/center_net_mobile_net_v2fpn_feature_extractor/model_1/model/block_1_project_BN/FusedBatchNormV3_center_net_mobile_net_v2fpn_feature_extractor/model_1/model/block_2_project/Conv2D_StatefulPartitionedCall/center_net_mobile_net_v2fpn_feature_extractor/model_1/model/block_2_project/Conv2D_center_net_mobile_net_v2fpn_feature_extractor/model_1/model/block_1_project/Conv2D_StatefulPartitionedCall/center_net_mobile_net_v2fpn_feature_extractor/model_1/model/block_1_project/Conv2D1:0">
					<dim>1</dim>
					<dim>40</dim>
					<dim>48</dim>
					<dim>64</dim>
				</port>
			</output>
		</layer>
		<layer id="33" name="Conv2D_4/filter" type="Const" version="opset1">
			<data element_type="f32" shape="240, 40, 1, 1" offset="55376" size="38400"/>
			<output>
				<port id="0" precision="FP32" names="Conv2D_4/filter:0">
					<dim>240</dim>
					<dim>40</dim>
					<dim>1</dim>
					<dim>1</dim>
				</port>
			</output>
		</layer>
		<layer id="34" name="Conv2D_4" type="Convolution" version="opset1">
			<data strides="1, 1" dilations="1, 1" pads_begin="0, 0" pads_end="0, 0" auto_pad="same_upper"/>
			<input>
				<port id="0" precision="FP32">
					<dim>1</dim>
					<dim>40</dim>
					<dim>48</dim>
					<dim>64</dim>
				</port>
				<port id="1" precision="FP32">
					<dim>240</dim>
					<dim>40</dim>
					<dim>1</dim>
					<dim>1</dim>
				</port>
			</input>
			<output>
				<port id="2" precision="FP32" names="Conv2D_4:0">
					<dim>1</dim>
					<dim>240</dim>
					<dim>48</dim>
					<dim>64</dim>
				</port>
			</output>
		</layer>
		<layer id="35" name="Add_4/y" type="Const" version="opset1">
			<data element_type="f32" shape="1, 240, 1, 1" offset="93776" size="960"/>
			<output>
				<port id="0" precision="FP32" names="Add_4/y:0">
					<dim>1</dim>
					<dim>240</dim>
					<dim>1</dim>
					<dim>1</dim>
				</port>
			</output>
		</layer>
		<layer id="36" name="Add_4" type="Add" version="opset1">
			<data auto_broadcast="numpy"/>
			<input>
				<port id="0" precision="FP32">
					<dim>1</dim>
					<dim>240</dim>
					<dim>48</dim>
					<dim>64</dim>
				</port>
				<port id="1" precision="FP32">
					<dim>1</dim>
					<dim>240</dim>
					<dim>1</dim>
					<dim>1</dim>
				</port>
			</input>
			<output>
				<port id="2" precision="FP32" names="Add_4:0">
					<dim>1</dim>
					<dim>240</dim>
					<dim>48</dim>
					<dim>64</dim>
				</port>
			</output>
		</layer>
		<layer id="37" name="center_net_mobile_net_v2fpn_feature_extractor/model_1/model/block_2_expand_relu/Relu6_StatefulPartitionedCall/center_net_mobile_net_v2fpn_feature_extractor/model_1/model/block_2_expand_relu/Relu6_center_net_mobile_net_v2fpn_feature_extractor/model_1/model/block_2_expand_BN/FusedBatchNormV3_StatefulPartitionedCall/center_net_mobile_net_v2fpn_feature_extractor/model_1/model/block_2_expand_BN/FusedBatchNormV3_center_net_mobile_net_v2fpn_feature_extractor/model_1/model/block_3_depthwise_BN/FusedBatchNormV3_StatefulPartitionedCall/center_net_mobile_net_v2fpn_feature_extractor/model_1/model/block_3_depthwise_BN/FusedBatchNormV3_center_net_mobile_net_v2fpn_feature_extractor/model_1/model/block_3_depthwise/depthwise_StatefulPartitionedCall/center_net_mobile_net_v2fpn_feature_extractor/model_1/model/block_3_depthwise/depthwise_center_net_mobile_net_v2fpn_feature_extractor/model_1/model/block_15_project/Conv2D_StatefulPartitionedCall/center_net_mobile_net_v2fpn_feature_extractor/model_1/model/block_15_project/Conv2D_center_net_mobile_net_v2fpn_feature_extractor/model_1/model/block_2_expand/Conv2D_StatefulPartitionedCall/center_net_mobile_net_v2fpn_feature_extractor/model_1/model/block_2_expand/Conv2D" type="Clamp" version="opset1">
			<data min="0" max="6"/>
			<input>
				<port id="0" precision="FP32">
					<dim>1</dim>
					<dim>240</dim>
					<dim>48</dim>
					<dim>64</dim>
				</port>
			</input>
			<output>
				<port id="1" precision="FP32" names="center_net_mobile_net_v2fpn_feature_extractor/model_1/model/block_2_expand_relu/Relu6_StatefulPartitionedCall/center_net_mobile_net_v2fpn_feature_extractor/model_1/model/block_2_expand_relu/Relu6_center_net_mobile_net_v2fpn_feature_extractor/model_1/model/block_2_expand_BN/FusedBatchNormV3_StatefulPartitionedCall/center_net_mobile_net_v2fpn_feature_extractor/model_1/model/block_2_expand_BN/FusedBatchNormV3_center_net_mobile_net_v2fpn_feature_extractor/model_1/model/block_3_depthwise_BN/FusedBatchNormV3_StatefulPartitionedCall/center_net_mobile_net_v2fpn_feature_extractor/model_1/model/block_3_depthwise_BN/FusedBatchNormV3_center_net_mobile_net_v2fpn_feature_extractor/model_1/model/block_3_depthwise/depthwise_StatefulPartitionedCall/center_net_mobile_net_v2fpn_feature_extractor/model_1/model/block_3_depthwise/depthwise_center_net_mobile_net_v2fpn_feature_extractor/model_1/model/block_15_project/Conv2D_StatefulPartitionedCall/center_net_mobile_net_v2fpn_feature_extractor/model_1/model/block_15_project/Conv2D_center_net_mobile_net_v2fpn_feature_extractor/model_1/model/block_2_expand/Conv2D_StatefulPartitionedCall/center_net_mobile_net_v2fpn_feature_extractor/model_1/model/block_2_expand/Conv2D:0">
					<dim>1</dim>
					<dim>240</dim>
					<dim>48</dim>
					<dim>64</dim>
				</port>
			</output>
		</layer>
		<layer id="38" name="depthwise_2/filter_in" type="Const" version="opset1">
			<data element_type="f32" shape="240, 1, 1, 3, 3" offset="94736" size="8640"/>
			<output>
				<port id="0" precision="FP32" names="depthwise_2/filter_in:0">
					<dim>240</dim>
					<dim>1</dim>
					<dim>1</dim>
					<dim>3</dim>
					<dim>3</dim>
				</port>
			</output>
		</layer>
		<layer id="39" name="depthwise_2" type="GroupConvolution" version="opset1">
			<data strides="1, 1" pads_begin="1, 1" pads_end="1, 1" dilations="1, 1" auto_pad="same_upper"/>
			<input>
				<port id="0" precision="FP32">
					<dim>1</dim>
					<dim>240</dim>
					<dim>48</dim>
					<dim>64</dim>
				</port>
				<port id="1" precision="FP32">
					<dim>240</dim>
					<dim>1</dim>
					<dim>1</dim>
					<dim>3</dim>
					<dim>3</dim>
				</port>
			</input>
			<output>
				<port id="2" precision="FP32" names="depthwise_2:0">
					<dim>1</dim>
					<dim>240</dim>
					<dim>48</dim>
					<dim>64</dim>
				</port>
			</output>
		</layer>
		<layer id="40" name="Add_5/y" type="Const" version="opset1">
			<data element_type="f32" shape="1, 240, 1, 1" offset="103376" size="960"/>
			<output>
				<port id="0" precision="FP32" names="Add_5/y:0">
					<dim>1</dim>
					<dim>240</dim>
					<dim>1</dim>
					<dim>1</dim>
				</port>
			</output>
		</layer>
		<layer id="41" name="Add_5" type="Add" version="opset1">
			<data auto_broadcast="numpy"/>
			<input>
				<port id="0" precision="FP32">
					<dim>1</dim>
					<dim>240</dim>
					<dim>48</dim>
					<dim>64</dim>
				</port>
				<port id="1" precision="FP32">
					<dim>1</dim>
					<dim>240</dim>
					<dim>1</dim>
					<dim>1</dim>
				</port>
			</input>
			<output>
				<port id="2" precision="FP32" names="Add_5:0">
					<dim>1</dim>
					<dim>240</dim>
					<dim>48</dim>
					<dim>64</dim>
				</port>
			</output>
		</layer>
		<layer id="42" name="center_net_mobile_net_v2fpn_feature_extractor/model_1/model/block_2_depthwise_relu/Relu6_StatefulPartitionedCall/center_net_mobile_net_v2fpn_feature_extractor/model_1/model/block_2_depthwise_relu/Relu6_center_net_mobile_net_v2fpn_feature_extractor/model_1/model/block_2_depthwise_BN/FusedBatchNormV3_StatefulPartitionedCall/center_net_mobile_net_v2fpn_feature_extractor/model_1/model/block_2_depthwise_BN/FusedBatchNormV3_center_net_mobile_net_v2fpn_feature_extractor/model_1/model/block_3_depthwise_BN/FusedBatchNormV3_StatefulPartitionedCall/center_net_mobile_net_v2fpn_feature_extractor/model_1/model/block_3_depthwise_BN/FusedBatchNormV3_center_net_mobile_net_v2fpn_feature_extractor/model_1/model/block_3_depthwise/depthwise_StatefulPartitionedCall/center_net_mobile_net_v2fpn_feature_extractor/model_1/model/block_3_depthwise/depthwise_center_net_mobile_net_v2fpn_feature_extractor/model_1/model/block_15_project/Conv2D_StatefulPartitionedCall/center_net_mobile_net_v2fpn_feature_extractor/model_1/model/block_15_project/Conv2D_center_net_mobile_net_v2fpn_feature_extractor/model_1/model/block_2_depthwise/depthwise_StatefulPartitionedCall/center_net_mobile_net_v2fpn_feature_extractor/model_1/model/block_2_depthwise/depthwise" type="Clamp" version="opset1">
			<data min="0" max="6"/>
			<input>
				<port id="0" precision="FP32">
					<dim>1</dim>
					<dim>240</dim>
					<dim>48</dim>
					<dim>64</dim>
				</port>
			</input>
			<output>
				<port id="1" precision="FP32" names="center_net_mobile_net_v2fpn_feature_extractor/model_1/model/block_2_depthwise_relu/Relu6_StatefulPartitionedCall/center_net_mobile_net_v2fpn_feature_extractor/model_1/model/block_2_depthwise_relu/Relu6_center_net_mobile_net_v2fpn_feature_extractor/model_1/model/block_2_depthwise_BN/FusedBatchNormV3_StatefulPartitionedCall/center_net_mobile_net_v2fpn_feature_extractor/model_1/model/block_2_depthwise_BN/FusedBatchNormV3_center_net_mobile_net_v2fpn_feature_extractor/model_1/model/block_3_depthwise_BN/FusedBatchNormV3_StatefulPartitionedCall/center_net_mobile_net_v2fpn_feature_extractor/model_1/model/block_3_depthwise_BN/FusedBatchNormV3_center_net_mobile_net_v2fpn_feature_extractor/model_1/model/block_3_depthwise/depthwise_StatefulPartitionedCall/center_net_mobile_net_v2fpn_feature_extractor/model_1/model/block_3_depthwise/depthwise_center_net_mobile_net_v2fpn_feature_extractor/model_1/model/block_15_project/Conv2D_StatefulPartitionedCall/center_net_mobile_net_v2fpn_feature_extractor/model_1/model/block_15_project/Conv2D_center_net_mobile_net_v2fpn_feature_extractor/model_1/model/block_2_depthwise/depthwise_StatefulPartitionedCall/center_net_mobile_net_v2fpn_feature_extractor/model_1/model/block_2_depthwise/depthwise:0">
					<dim>1</dim>
					<dim>240</dim>
					<dim>48</dim>
					<dim>64</dim>
				</port>
			</output>
		</layer>
		<layer id="43" name="Conv2D_5/filter" type="Const" version="opset1">
			<data element_type="f32" shape="40, 240, 1, 1" offset="104336" size="38400"/>
			<output>
				<port id="0" precision="FP32" names="Conv2D_5/filter:0">
					<dim>40</dim>
					<dim>240</dim>
					<dim>1</dim>
					<dim>1</dim>
				</port>
			</output>
		</layer>
		<layer id="44" name="Conv2D_5" type="Convolution" version="opset1">
			<data strides="1, 1" dilations="1, 1" pads_begin="0, 0" pads_end="0, 0" auto_pad="same_upper"/>
			<input>
				<port id="0" precision="FP32">
					<dim>1</dim>
					<dim>240</dim>
					<dim>48</dim>
					<dim>64</dim>
				</port>
				<port id="1" precision="FP32">
					<dim>40</dim>
					<dim>240</dim>
					<dim>1</dim>
					<dim>1</dim>
				</port>
			</input>
			<output>
				<port id="2" precision="FP32" names="Conv2D_5:0">
					<dim>1</dim>
					<dim>40</dim>
					<dim>48</dim>
					<dim>64</dim>
				</port>
			</output>
		</layer>
		<layer id="45" name="center_net_mobile_net_v2fpn_feature_extractor/model_1/model/block_2_project_BN/FusedBatchNormV3_StatefulPartitionedCall/center_net_mobile_net_v2fpn_feature_extractor/model_1/model/block_2_project_BN/FusedBatchNormV3_center_net_mobile_net_v2fpn_feature_extractor/model_1/model/block_2_project/Conv2D_StatefulPartitionedCall/center_net_mobile_net_v2fpn_feature_extractor/model_1/model/block_2_project/Conv2D1/y" type="Const" version="opset1">
			<data element_type="f32" shape="1, 40, 1, 1" offset="142736" size="160"/>
			<output>
				<port id="0" precision="FP32" names="center_net_mobile_net_v2fpn_feature_extractor/model_1/model/block_2_project_BN/FusedBatchNormV3_StatefulPartitionedCall/center_net_mobile_net_v2fpn_feature_extractor/model_1/model/block_2_project_BN/FusedBatchNormV3_center_net_mobile_net_v2fpn_feature_extractor/model_1/model/block_2_project/Conv2D_StatefulPartitionedCall/center_net_mobile_net_v2fpn_feature_extractor/model_1/model/block_2_project/Conv2D1/y:0">
					<dim>1</dim>
					<dim>40</dim>
					<dim>1</dim>
					<dim>1</dim>
				</port>
			</output>
		</layer>
		<layer id="46" name="center_net_mobile_net_v2fpn_feature_extractor/model_1/model/block_2_project_BN/FusedBatchNormV3_StatefulPartitionedCall/center_net_mobile_net_v2fpn_feature_extractor/model_1/model/block_2_project_BN/FusedBatchNormV3_center_net_mobile_net_v2fpn_feature_extractor/model_1/model/block_2_project/Conv2D_StatefulPartitionedCall/center_net_mobile_net_v2fpn_feature_extractor/model_1/model/block_2_project/Conv2D1" type="Add" version="opset1">
			<data auto_broadcast="numpy"/>
			<input>
				<port id="0" precision="FP32">
					<dim>1</dim>
					<dim>40</dim>
					<dim>48</dim>
					<dim>64</dim>
				</port>
				<port id="1" precision="FP32">
					<dim>1</dim>
					<dim>40</dim>
					<dim>1</dim>
					<dim>1</dim>
				</port>
			</input>
			<output>
				<port id="2" precision="FP32" names="center_net_mobile_net_v2fpn_feature_extractor/model_1/model/block_2_project_BN/FusedBatchNormV3_StatefulPartitionedCall/center_net_mobile_net_v2fpn_feature_extractor/model_1/model/block_2_project_BN/FusedBatchNormV3_center_net_mobile_net_v2fpn_feature_extractor/model_1/model/block_2_project/Conv2D_StatefulPartitionedCall/center_net_mobile_net_v2fpn_feature_extractor/model_1/model/block_2_project/Conv2D1:0">
					<dim>1</dim>
					<dim>40</dim>
					<dim>48</dim>
					<dim>64</dim>
				</port>
			</output>
		</layer>
		<layer id="47" name="center_net_mobile_net_v2fpn_feature_extractor/model_1/model/block_2_add/add_StatefulPartitionedCall/center_net_mobile_net_v2fpn_feature_extractor/model_1/model/block_2_add/add" type="Add" version="opset1">
			<data auto_broadcast="numpy"/>
			<input>
				<port id="0" precision="FP32">
					<dim>1</dim>
					<dim>40</dim>
					<dim>48</dim>
					<dim>64</dim>
				</port>
				<port id="1" precision="FP32">
					<dim>1</dim>
					<dim>40</dim>
					<dim>48</dim>
					<dim>64</dim>
				</port>
			</input>
			<output>
				<port id="2" precision="FP32" names="center_net_mobile_net_v2fpn_feature_extractor/model_1/model/block_2_add/add_StatefulPartitionedCall/center_net_mobile_net_v2fpn_feature_extractor/model_1/model/block_2_add/add:0">
					<dim>1</dim>
					<dim>40</dim>
					<dim>48</dim>
					<dim>64</dim>
				</port>
			</output>
		</layer>
		<layer id="48" name="Conv2D_7/filter" type="Const" version="opset1">
			<data element_type="f32" shape="240, 40, 1, 1" offset="142896" size="38400"/>
			<output>
				<port id="0" precision="FP32" names="Conv2D_7/filter:0">
					<dim>240</dim>
					<dim>40</dim>
					<dim>1</dim>
					<dim>1</dim>
				</port>
			</output>
		</layer>
		<layer id="49" name="Conv2D_7" type="Convolution" version="opset1">
			<data strides="1, 1" dilations="1, 1" pads_begin="0, 0" pads_end="0, 0" auto_pad="same_upper"/>
			<input>
				<port id="0" precision="FP32">
					<dim>1</dim>
					<dim>40</dim>
					<dim>48</dim>
					<dim>64</dim>
				</port>
				<port id="1" precision="FP32">
					<dim>240</dim>
					<dim>40</dim>
					<dim>1</dim>
					<dim>1</dim>
				</port>
			</input>
			<output>
				<port id="2" precision="FP32" names="Conv2D_7:0">
					<dim>1</dim>
					<dim>240</dim>
					<dim>48</dim>
					<dim>64</dim>
				</port>
			</output>
		</layer>
		<layer id="50" name="Add_6/y" type="Const" version="opset1">
			<data element_type="f32" shape="1, 240, 1, 1" offset="181296" size="960"/>
			<output>
				<port id="0" precision="FP32" names="Add_6/y:0">
					<dim>1</dim>
					<dim>240</dim>
					<dim>1</dim>
					<dim>1</dim>
				</port>
			</output>
		</layer>
		<layer id="51" name="Add_6" type="Add" version="opset1">
			<data auto_broadcast="numpy"/>
			<input>
				<port id="0" precision="FP32">
					<dim>1</dim>
					<dim>240</dim>
					<dim>48</dim>
					<dim>64</dim>
				</port>
				<port id="1" precision="FP32">
					<dim>1</dim>
					<dim>240</dim>
					<dim>1</dim>
					<dim>1</dim>
				</port>
			</input>
			<output>
				<port id="2" precision="FP32" names="Add_6:0">
					<dim>1</dim>
					<dim>240</dim>
					<dim>48</dim>
					<dim>64</dim>
				</port>
			</output>
		</layer>
		<layer id="52" name="center_net_mobile_net_v2fpn_feature_extractor/model_1/model/block_3_expand_relu/Relu6_StatefulPartitionedCall/center_net_mobile_net_v2fpn_feature_extractor/model_1/model/block_3_expand_relu/Relu6_center_net_mobile_net_v2fpn_feature_extractor/model_1/model/block_3_expand_BN/FusedBatchNormV3_StatefulPartitionedCall/center_net_mobile_net_v2fpn_feature_extractor/model_1/model/block_3_expand_BN/FusedBatchNormV3_center_net_mobile_net_v2fpn_feature_extractor/model_1/model/block_3_depthwise_BN/FusedBatchNormV3_StatefulPartitionedCall/center_net_mobile_net_v2fpn_feature_extractor/model_1/model/block_3_depthwise_BN/FusedBatchNormV3_center_net_mobile_net_v2fpn_feature_extractor/model_1/model/block_3_depthwise/depthwise_StatefulPartitionedCall/center_net_mobile_net_v2fpn_feature_extractor/model_1/model/block_3_depthwise/depthwise_center_net_mobile_net_v2fpn_feature_extractor/model_1/model/block_15_project/Conv2D_StatefulPartitionedCall/center_net_mobile_net_v2fpn_feature_extractor/model_1/model/block_15_project/Conv2D_center_net_mobile_net_v2fpn_feature_extractor/model_1/model/block_3_expand/Conv2D_StatefulPartitionedCall/center_net_mobile_net_v2fpn_feature_extractor/model_1/model/block_3_expand/Conv2D" type="Clamp" version="opset1">
			<data min="0" max="6"/>
			<input>
				<port id="0" precision="FP32">
					<dim>1</dim>
					<dim>240</dim>
					<dim>48</dim>
					<dim>64</dim>
				</port>
			</input>
			<output>
				<port id="1" precision="FP32" names="center_net_mobile_net_v2fpn_feature_extractor/model_1/model/block_3_expand_relu/Relu6_StatefulPartitionedCall/center_net_mobile_net_v2fpn_feature_extractor/model_1/model/block_3_expand_relu/Relu6_center_net_mobile_net_v2fpn_feature_extractor/model_1/model/block_3_expand_BN/FusedBatchNormV3_StatefulPartitionedCall/center_net_mobile_net_v2fpn_feature_extractor/model_1/model/block_3_expand_BN/FusedBatchNormV3_center_net_mobile_net_v2fpn_feature_extractor/model_1/model/block_3_depthwise_BN/FusedBatchNormV3_StatefulPartitionedCall/center_net_mobile_net_v2fpn_feature_extractor/model_1/model/block_3_depthwise_BN/FusedBatchNormV3_center_net_mobile_net_v2fpn_feature_extractor/model_1/model/block_3_depthwise/depthwise_StatefulPartitionedCall/center_net_mobile_net_v2fpn_feature_extractor/model_1/model/block_3_depthwise/depthwise_center_net_mobile_net_v2fpn_feature_extractor/model_1/model/block_15_project/Conv2D_StatefulPartitionedCall/center_net_mobile_net_v2fpn_feature_extractor/model_1/model/block_15_project/Conv2D_center_net_mobile_net_v2fpn_feature_extractor/model_1/model/block_3_expand/Conv2D_StatefulPartitionedCall/center_net_mobile_net_v2fpn_feature_extractor/model_1/model/block_3_expand/Conv2D:0">
					<dim>1</dim>
					<dim>240</dim>
					<dim>48</dim>
					<dim>64</dim>
				</port>
			</output>
		</layer>
		<layer id="53" name="depthwise_3/filter_in" type="Const" version="opset1">
			<data element_type="f32" shape="240, 1, 1, 3, 3" offset="182256" size="8640"/>
			<output>
				<port id="0" precision="FP32" names="depthwise_3/filter_in:0">
					<dim>240</dim>
					<dim>1</dim>
					<dim>1</dim>
					<dim>3</dim>
					<dim>3</dim>
				</port>
			</output>
		</layer>
		<layer id="54" name="depthwise_3" type="GroupConvolution" version="opset1">
			<data strides="2, 2" pads_begin="0, 0" pads_end="1, 1" dilations="1, 1" auto_pad="same_upper"/>
			<input>
				<port id="0" precision="FP32">
					<dim>1</dim>
					<dim>240</dim>
					<dim>48</dim>
					<dim>64</dim>
				</port>
				<port id="1" precision="FP32">
					<dim>240</dim>
					<dim>1</dim>
					<dim>1</dim>
					<dim>3</dim>
					<dim>3</dim>
				</port>
			</input>
			<output>
				<port id="2" precision="FP32" names="depthwise_3:0">
					<dim>1</dim>
					<dim>240</dim>
					<dim>24</dim>
					<dim>32</dim>
				</port>
			</output>
		</layer>
		<layer id="55" name="Add_7/y" type="Const" version="opset1">
			<data element_type="f32" shape="1, 240, 1, 1" offset="190896" size="960"/>
			<output>
				<port id="0" precision="FP32" names="Add_7/y:0">
					<dim>1</dim>
					<dim>240</dim>
					<dim>1</dim>
					<dim>1</dim>
				</port>
			</output>
		</layer>
		<layer id="56" name="Add_7" type="Add" version="opset1">
			<data auto_broadcast="numpy"/>
			<input>
				<port id="0" precision="FP32">
					<dim>1</dim>
					<dim>240</dim>
					<dim>24</dim>
					<dim>32</dim>
				</port>
				<port id="1" precision="FP32">
					<dim>1</dim>
					<dim>240</dim>
					<dim>1</dim>
					<dim>1</dim>
				</port>
			</input>
			<output>
				<port id="2" precision="FP32" names="Add_7:0">
					<dim>1</dim>
					<dim>240</dim>
					<dim>24</dim>
					<dim>32</dim>
				</port>
			</output>
		</layer>
		<layer id="57" name="center_net_mobile_net_v2fpn_feature_extractor/model_1/model/block_3_depthwise_relu/Relu6_StatefulPartitionedCall/center_net_mobile_net_v2fpn_feature_extractor/model_1/model/block_3_depthwise_relu/Relu6_center_net_mobile_net_v2fpn_feature_extractor/model_1/model/block_3_depthwise_BN/FusedBatchNormV3_StatefulPartitionedCall/center_net_mobile_net_v2fpn_feature_extractor/model_1/model/block_3_depthwise_BN/FusedBatchNormV3_center_net_mobile_net_v2fpn_feature_extractor/model_1/model/block_3_depthwise/depthwise_StatefulPartitionedCall/center_net_mobile_net_v2fpn_feature_extractor/model_1/model/block_3_depthwise/depthwise_center_net_mobile_net_v2fpn_feature_extractor/model_1/model/block_15_project/Conv2D_StatefulPartitionedCall/center_net_mobile_net_v2fpn_feature_extractor/model_1/model/block_15_project/Conv2D" type="Clamp" version="opset1">
			<data min="0" max="6"/>
			<input>
				<port id="0" precision="FP32">
					<dim>1</dim>
					<dim>240</dim>
					<dim>24</dim>
					<dim>32</dim>
				</port>
			</input>
			<output>
				<port id="1" precision="FP32" names="center_net_mobile_net_v2fpn_feature_extractor/model_1/model/block_3_depthwise_relu/Relu6_StatefulPartitionedCall/center_net_mobile_net_v2fpn_feature_extractor/model_1/model/block_3_depthwise_relu/Relu6_center_net_mobile_net_v2fpn_feature_extractor/model_1/model/block_3_depthwise_BN/FusedBatchNormV3_StatefulPartitionedCall/center_net_mobile_net_v2fpn_feature_extractor/model_1/model/block_3_depthwise_BN/FusedBatchNormV3_center_net_mobile_net_v2fpn_feature_extractor/model_1/model/block_3_depthwise/depthwise_StatefulPartitionedCall/center_net_mobile_net_v2fpn_feature_extractor/model_1/model/block_3_depthwise/depthwise_center_net_mobile_net_v2fpn_feature_extractor/model_1/model/block_15_project/Conv2D_StatefulPartitionedCall/center_net_mobile_net_v2fpn_feature_extractor/model_1/model/block_15_project/Conv2D:0">
					<dim>1</dim>
					<dim>240</dim>
					<dim>24</dim>
					<dim>32</dim>
				</port>
			</output>
		</layer>
		<layer id="58" name="Conv2D_8/filter" type="Const" version="opset1">
			<data element_type="f32" shape="48, 240, 1, 1" offset="191856" size="46080"/>
			<output>
				<port id="0" precision="FP32" names="Conv2D_8/filter:0">
					<dim>48</dim>
					<dim>240</dim>
					<dim>1</dim>
					<dim>1</dim>
				</port>
			</output>
		</layer>
		<layer id="59" name="Conv2D_8" type="Convolution" version="opset1">
			<data strides="1, 1" dilations="1, 1" pads_begin="0, 0" pads_end="0, 0" auto_pad="same_upper"/>
			<input>
				<port id="0" precision="FP32">
					<dim>1</dim>
					<dim>240</dim>
					<dim>24</dim>
					<dim>32</dim>
				</port>
				<port id="1" precision="FP32">
					<dim>48</dim>
					<dim>240</dim>
					<dim>1</dim>
					<dim>1</dim>
				</port>
			</input>
			<output>
				<port id="2" precision="FP32" names="Conv2D_8:0">
					<dim>1</dim>
					<dim>48</dim>
					<dim>24</dim>
					<dim>32</dim>
				</port>
			</output>
		</layer>
		<layer id="60" name="center_net_mobile_net_v2fpn_feature_extractor/model_1/model/block_3_project_BN/FusedBatchNormV3_StatefulPartitionedCall/center_net_mobile_net_v2fpn_feature_extractor/model_1/model/block_3_project_BN/FusedBatchNormV3_center_net_mobile_net_v2fpn_feature_extractor/model_1/model/block_5_project/Conv2D_StatefulPartitionedCall/center_net_mobile_net_v2fpn_feature_extractor/model_1/model/block_5_project/Conv2D_center_net_mobile_net_v2fpn_feature_extractor/model_1/model/block_3_project/Conv2D_StatefulPartitionedCall/center_net_mobile_net_v2fpn_feature_extractor/model_1/model/block_3_project/Conv2D1/y" type="Const" version="opset1">
			<data element_type="f32" shape="1, 48, 1, 1" offset="237936" size="192"/>
			<output>
				<port id="0" precision="FP32" names="center_net_mobile_net_v2fpn_feature_extractor/model_1/model/block_3_project_BN/FusedBatchNormV3_StatefulPartitionedCall/center_net_mobile_net_v2fpn_feature_extractor/model_1/model/block_3_project_BN/FusedBatchNormV3_center_net_mobile_net_v2fpn_feature_extractor/model_1/model/block_5_project/Conv2D_StatefulPartitionedCall/center_net_mobile_net_v2fpn_feature_extractor/model_1/model/block_5_project/Conv2D_center_net_mobile_net_v2fpn_feature_extractor/model_1/model/block_3_project/Conv2D_StatefulPartitionedCall/center_net_mobile_net_v2fpn_feature_extractor/model_1/model/block_3_project/Conv2D1/y:0">
					<dim>1</dim>
					<dim>48</dim>
					<dim>1</dim>
					<dim>1</dim>
				</port>
			</output>
		</layer>
		<layer id="61" name="center_net_mobile_net_v2fpn_feature_extractor/model_1/model/block_3_project_BN/FusedBatchNormV3_StatefulPartitionedCall/center_net_mobile_net_v2fpn_feature_extractor/model_1/model/block_3_project_BN/FusedBatchNormV3_center_net_mobile_net_v2fpn_feature_extractor/model_1/model/block_5_project/Conv2D_StatefulPartitionedCall/center_net_mobile_net_v2fpn_feature_extractor/model_1/model/block_5_project/Conv2D_center_net_mobile_net_v2fpn_feature_extractor/model_1/model/block_3_project/Conv2D_StatefulPartitionedCall/center_net_mobile_net_v2fpn_feature_extractor/model_1/model/block_3_project/Conv2D1" type="Add" version="opset1">
			<data auto_broadcast="numpy"/>
			<input>
				<port id="0" precision="FP32">
					<dim>1</dim>
					<dim>48</dim>
					<dim>24</dim>
					<dim>32</dim>
				</port>
				<port id="1" precision="FP32">
					<dim>1</dim>
					<dim>48</dim>
					<dim>1</dim>
					<dim>1</dim>
				</port>
			</input>
			<output>
				<port id="2" precision="FP32" names="center_net_mobile_net_v2fpn_feature_extractor/model_1/model/block_3_project_BN/FusedBatchNormV3_StatefulPartitionedCall/center_net_mobile_net_v2fpn_feature_extractor/model_1/model/block_3_project_BN/FusedBatchNormV3_center_net_mobile_net_v2fpn_feature_extractor/model_1/model/block_5_project/Conv2D_StatefulPartitionedCall/center_net_mobile_net_v2fpn_feature_extractor/model_1/model/block_5_project/Conv2D_center_net_mobile_net_v2fpn_feature_extractor/model_1/model/block_3_project/Conv2D_StatefulPartitionedCall/center_net_mobile_net_v2fpn_feature_extractor/model_1/model/block_3_project/Conv2D1:0">
					<dim>1</dim>
					<dim>48</dim>
					<dim>24</dim>
					<dim>32</dim>
				</port>
			</output>
		</layer>
		<layer id="62" name="Conv2D_9/filter" type="Const" version="opset1">
			<data element_type="f32" shape="288, 48, 1, 1" offset="238128" size="55296"/>
			<output>
				<port id="0" precision="FP32" names="Conv2D_9/filter:0">
					<dim>288</dim>
					<dim>48</dim>
					<dim>1</dim>
					<dim>1</dim>
				</port>
			</output>
		</layer>
		<layer id="63" name="Conv2D_9" type="Convolution" version="opset1">
			<data strides="1, 1" dilations="1, 1" pads_begin="0, 0" pads_end="0, 0" auto_pad="same_upper"/>
			<input>
				<port id="0" precision="FP32">
					<dim>1</dim>
					<dim>48</dim>
					<dim>24</dim>
					<dim>32</dim>
				</port>
				<port id="1" precision="FP32">
					<dim>288</dim>
					<dim>48</dim>
					<dim>1</dim>
					<dim>1</dim>
				</port>
			</input>
			<output>
				<port id="2" precision="FP32" names="Conv2D_9:0">
					<dim>1</dim>
					<dim>288</dim>
					<dim>24</dim>
					<dim>32</dim>
				</port>
			</output>
		</layer>
		<layer id="64" name="Add_8/y" type="Const" version="opset1">
			<data element_type="f32" shape="1, 288, 1, 1" offset="293424" size="1152"/>
			<output>
				<port id="0" precision="FP32" names="Add_8/y:0">
					<dim>1</dim>
					<dim>288</dim>
					<dim>1</dim>
					<dim>1</dim>
				</port>
			</output>
		</layer>
		<layer id="65" name="Add_8" type="Add" version="opset1">
			<data auto_broadcast="numpy"/>
			<input>
				<port id="0" precision="FP32">
					<dim>1</dim>
					<dim>288</dim>
					<dim>24</dim>
					<dim>32</dim>
				</port>
				<port id="1" precision="FP32">
					<dim>1</dim>
					<dim>288</dim>
					<dim>1</dim>
					<dim>1</dim>
				</port>
			</input>
			<output>
				<port id="2" precision="FP32" names="Add_8:0">
					<dim>1</dim>
					<dim>288</dim>
					<dim>24</dim>
					<dim>32</dim>
				</port>
			</output>
		</layer>
		<layer id="66" name="center_net_mobile_net_v2fpn_feature_extractor/model_1/model/block_4_expand_relu/Relu6_StatefulPartitionedCall/center_net_mobile_net_v2fpn_feature_extractor/model_1/model/block_4_expand_relu/Relu6_center_net_mobile_net_v2fpn_feature_extractor/model_1/model/block_4_expand_BN/FusedBatchNormV3_StatefulPartitionedCall/center_net_mobile_net_v2fpn_feature_extractor/model_1/model/block_4_expand_BN/FusedBatchNormV3_center_net_mobile_net_v2fpn_feature_extractor/model_1/model/block_6_depthwise_BN/FusedBatchNormV3_StatefulPartitionedCall/center_net_mobile_net_v2fpn_feature_extractor/model_1/model/block_6_depthwise_BN/FusedBatchNormV3_center_net_mobile_net_v2fpn_feature_extractor/model_1/model/block_6_depthwise/depthwise_StatefulPartitionedCall/center_net_mobile_net_v2fpn_feature_extractor/model_1/model/block_6_depthwise/depthwise_center_net_mobile_net_v2fpn_feature_extractor/model_1/model/block_4_expand/Conv2D_StatefulPartitionedCall/center_net_mobile_net_v2fpn_feature_extractor/model_1/model/block_4_expand/Conv2D" type="Clamp" version="opset1">
			<data min="0" max="6"/>
			<input>
				<port id="0" precision="FP32">
					<dim>1</dim>
					<dim>288</dim>
					<dim>24</dim>
					<dim>32</dim>
				</port>
			</input>
			<output>
				<port id="1" precision="FP32" names="center_net_mobile_net_v2fpn_feature_extractor/model_1/model/block_4_expand_relu/Relu6_StatefulPartitionedCall/center_net_mobile_net_v2fpn_feature_extractor/model_1/model/block_4_expand_relu/Relu6_center_net_mobile_net_v2fpn_feature_extractor/model_1/model/block_4_expand_BN/FusedBatchNormV3_StatefulPartitionedCall/center_net_mobile_net_v2fpn_feature_extractor/model_1/model/block_4_expand_BN/FusedBatchNormV3_center_net_mobile_net_v2fpn_feature_extractor/model_1/model/block_6_depthwise_BN/FusedBatchNormV3_StatefulPartitionedCall/center_net_mobile_net_v2fpn_feature_extractor/model_1/model/block_6_depthwise_BN/FusedBatchNormV3_center_net_mobile_net_v2fpn_feature_extractor/model_1/model/block_6_depthwise/depthwise_StatefulPartitionedCall/center_net_mobile_net_v2fpn_feature_extractor/model_1/model/block_6_depthwise/depthwise_center_net_mobile_net_v2fpn_feature_extractor/model_1/model/block_4_expand/Conv2D_StatefulPartitionedCall/center_net_mobile_net_v2fpn_feature_extractor/model_1/model/block_4_expand/Conv2D:0">
					<dim>1</dim>
					<dim>288</dim>
					<dim>24</dim>
					<dim>32</dim>
				</port>
			</output>
		</layer>
		<layer id="67" name="depthwise_4/filter_in" type="Const" version="opset1">
			<data element_type="f32" shape="288, 1, 1, 3, 3" offset="294576" size="10368"/>
			<output>
				<port id="0" precision="FP32" names="depthwise_4/filter_in:0">
					<dim>288</dim>
					<dim>1</dim>
					<dim>1</dim>
					<dim>3</dim>
					<dim>3</dim>
				</port>
			</output>
		</layer>
		<layer id="68" name="depthwise_4" type="GroupConvolution" version="opset1">
			<data strides="1, 1" pads_begin="1, 1" pads_end="1, 1" dilations="1, 1" auto_pad="same_upper"/>
			<input>
				<port id="0" precision="FP32">
					<dim>1</dim>
					<dim>288</dim>
					<dim>24</dim>
					<dim>32</dim>
				</port>
				<port id="1" precision="FP32">
					<dim>288</dim>
					<dim>1</dim>
					<dim>1</dim>
					<dim>3</dim>
					<dim>3</dim>
				</port>
			</input>
			<output>
				<port id="2" precision="FP32" names="depthwise_4:0">
					<dim>1</dim>
					<dim>288</dim>
					<dim>24</dim>
					<dim>32</dim>
				</port>
			</output>
		</layer>
		<layer id="69" name="Add_9/y" type="Const" version="opset1">
			<data element_type="f32" shape="1, 288, 1, 1" offset="304944" size="1152"/>
			<output>
				<port id="0" precision="FP32" names="Add_9/y:0">
					<dim>1</dim>
					<dim>288</dim>
					<dim>1</dim>
					<dim>1</dim>
				</port>
			</output>
		</layer>
		<layer id="70" name="Add_9" type="Add" version="opset1">
			<data auto_broadcast="numpy"/>
			<input>
				<port id="0" precision="FP32">
					<dim>1</dim>
					<dim>288</dim>
					<dim>24</dim>
					<dim>32</dim>
				</port>
				<port id="1" precision="FP32">
					<dim>1</dim>
					<dim>288</dim>
					<dim>1</dim>
					<dim>1</dim>
				</port>
			</input>
			<output>
				<port id="2" precision="FP32" names="Add_9:0">
					<dim>1</dim>
					<dim>288</dim>
					<dim>24</dim>
					<dim>32</dim>
				</port>
			</output>
		</layer>
		<layer id="71" name="center_net_mobile_net_v2fpn_feature_extractor/model_1/model/block_4_depthwise_relu/Relu6_StatefulPartitionedCall/center_net_mobile_net_v2fpn_feature_extractor/model_1/model/block_4_depthwise_relu/Relu6_center_net_mobile_net_v2fpn_feature_extractor/model_1/model/block_4_depthwise_BN/FusedBatchNormV3_StatefulPartitionedCall/center_net_mobile_net_v2fpn_feature_extractor/model_1/model/block_4_depthwise_BN/FusedBatchNormV3_center_net_mobile_net_v2fpn_feature_extractor/model_1/model/block_6_depthwise_BN/FusedBatchNormV3_StatefulPartitionedCall/center_net_mobile_net_v2fpn_feature_extractor/model_1/model/block_6_depthwise_BN/FusedBatchNormV3_center_net_mobile_net_v2fpn_feature_extractor/model_1/model/block_6_depthwise/depthwise_StatefulPartitionedCall/center_net_mobile_net_v2fpn_feature_extractor/model_1/model/block_6_depthwise/depthwise_center_net_mobile_net_v2fpn_feature_extractor/model_1/model/block_4_depthwise/depthwise_StatefulPartitionedCall/center_net_mobile_net_v2fpn_feature_extractor/model_1/model/block_4_depthwise/depthwise" type="Clamp" version="opset1">
			<data min="0" max="6"/>
			<input>
				<port id="0" precision="FP32">
					<dim>1</dim>
					<dim>288</dim>
					<dim>24</dim>
					<dim>32</dim>
				</port>
			</input>
			<output>
				<port id="1" precision="FP32" names="center_net_mobile_net_v2fpn_feature_extractor/model_1/model/block_4_depthwise_relu/Relu6_StatefulPartitionedCall/center_net_mobile_net_v2fpn_feature_extractor/model_1/model/block_4_depthwise_relu/Relu6_center_net_mobile_net_v2fpn_feature_extractor/model_1/model/block_4_depthwise_BN/FusedBatchNormV3_StatefulPartitionedCall/center_net_mobile_net_v2fpn_feature_extractor/model_1/model/block_4_depthwise_BN/FusedBatchNormV3_center_net_mobile_net_v2fpn_feature_extractor/model_1/model/block_6_depthwise_BN/FusedBatchNormV3_StatefulPartitionedCall/center_net_mobile_net_v2fpn_feature_extractor/model_1/model/block_6_depthwise_BN/FusedBatchNormV3_center_net_mobile_net_v2fpn_feature_extractor/model_1/model/block_6_depthwise/depthwise_StatefulPartitionedCall/center_net_mobile_net_v2fpn_feature_extractor/model_1/model/block_6_depthwise/depthwise_center_net_mobile_net_v2fpn_feature_extractor/model_1/model/block_4_depthwise/depthwise_StatefulPartitionedCall/center_net_mobile_net_v2fpn_feature_extractor/model_1/model/block_4_depthwise/depthwise:0">
					<dim>1</dim>
					<dim>288</dim>
					<dim>24</dim>
					<dim>32</dim>
				</port>
			</output>
		</layer>
		<layer id="72" name="Conv2D_10/filter" type="Const" version="opset1">
			<data element_type="f32" shape="48, 288, 1, 1" offset="306096" size="55296"/>
			<output>
				<port id="0" precision="FP32" names="Conv2D_10/filter:0">
					<dim>48</dim>
					<dim>288</dim>
					<dim>1</dim>
					<dim>1</dim>
				</port>
			</output>
		</layer>
		<layer id="73" name="Conv2D_10" type="Convolution" version="opset1">
			<data strides="1, 1" dilations="1, 1" pads_begin="0, 0" pads_end="0, 0" auto_pad="same_upper"/>
			<input>
				<port id="0" precision="FP32">
					<dim>1</dim>
					<dim>288</dim>
					<dim>24</dim>
					<dim>32</dim>
				</port>
				<port id="1" precision="FP32">
					<dim>48</dim>
					<dim>288</dim>
					<dim>1</dim>
					<dim>1</dim>
				</port>
			</input>
			<output>
				<port id="2" precision="FP32" names="Conv2D_10:0">
					<dim>1</dim>
					<dim>48</dim>
					<dim>24</dim>
					<dim>32</dim>
				</port>
			</output>
		</layer>
		<layer id="74" name="center_net_mobile_net_v2fpn_feature_extractor/model_1/model/block_4_project_BN/FusedBatchNormV3_StatefulPartitionedCall/center_net_mobile_net_v2fpn_feature_extractor/model_1/model/block_4_project_BN/FusedBatchNormV3_center_net_mobile_net_v2fpn_feature_extractor/model_1/model/block_5_project/Conv2D_StatefulPartitionedCall/center_net_mobile_net_v2fpn_feature_extractor/model_1/model/block_5_project/Conv2D_center_net_mobile_net_v2fpn_feature_extractor/model_1/model/block_4_project/Conv2D_StatefulPartitionedCall/center_net_mobile_net_v2fpn_feature_extractor/model_1/model/block_4_project/Conv2D1/y" type="Const" version="opset1">
			<data element_type="f32" shape="1, 48, 1, 1" offset="361392" size="192"/>
			<output>
				<port id="0" precision="FP32" names="center_net_mobile_net_v2fpn_feature_extractor/model_1/model/block_4_project_BN/FusedBatchNormV3_StatefulPartitionedCall/center_net_mobile_net_v2fpn_feature_extractor/model_1/model/block_4_project_BN/FusedBatchNormV3_center_net_mobile_net_v2fpn_feature_extractor/model_1/model/block_5_project/Conv2D_StatefulPartitionedCall/center_net_mobile_net_v2fpn_feature_extractor/model_1/model/block_5_project/Conv2D_center_net_mobile_net_v2fpn_feature_extractor/model_1/model/block_4_project/Conv2D_StatefulPartitionedCall/center_net_mobile_net_v2fpn_feature_extractor/model_1/model/block_4_project/Conv2D1/y:0">
					<dim>1</dim>
					<dim>48</dim>
					<dim>1</dim>
					<dim>1</dim>
				</port>
			</output>
		</layer>
		<layer id="75" name="center_net_mobile_net_v2fpn_feature_extractor/model_1/model/block_4_project_BN/FusedBatchNormV3_StatefulPartitionedCall/center_net_mobile_net_v2fpn_feature_extractor/model_1/model/block_4_project_BN/FusedBatchNormV3_center_net_mobile_net_v2fpn_feature_extractor/model_1/model/block_5_project/Conv2D_StatefulPartitionedCall/center_net_mobile_net_v2fpn_feature_extractor/model_1/model/block_5_project/Conv2D_center_net_mobile_net_v2fpn_feature_extractor/model_1/model/block_4_project/Conv2D_StatefulPartitionedCall/center_net_mobile_net_v2fpn_feature_extractor/model_1/model/block_4_project/Conv2D1" type="Add" version="opset1">
			<data auto_broadcast="numpy"/>
			<input>
				<port id="0" precision="FP32">
					<dim>1</dim>
					<dim>48</dim>
					<dim>24</dim>
					<dim>32</dim>
				</port>
				<port id="1" precision="FP32">
					<dim>1</dim>
					<dim>48</dim>
					<dim>1</dim>
					<dim>1</dim>
				</port>
			</input>
			<output>
				<port id="2" precision="FP32" names="center_net_mobile_net_v2fpn_feature_extractor/model_1/model/block_4_project_BN/FusedBatchNormV3_StatefulPartitionedCall/center_net_mobile_net_v2fpn_feature_extractor/model_1/model/block_4_project_BN/FusedBatchNormV3_center_net_mobile_net_v2fpn_feature_extractor/model_1/model/block_5_project/Conv2D_StatefulPartitionedCall/center_net_mobile_net_v2fpn_feature_extractor/model_1/model/block_5_project/Conv2D_center_net_mobile_net_v2fpn_feature_extractor/model_1/model/block_4_project/Conv2D_StatefulPartitionedCall/center_net_mobile_net_v2fpn_feature_extractor/model_1/model/block_4_project/Conv2D1:0">
					<dim>1</dim>
					<dim>48</dim>
					<dim>24</dim>
					<dim>32</dim>
				</port>
			</output>
		</layer>
		<layer id="76" name="center_net_mobile_net_v2fpn_feature_extractor/model_1/model/block_4_add/add_StatefulPartitionedCall/center_net_mobile_net_v2fpn_feature_extractor/model_1/model/block_4_add/add" type="Add" version="opset1">
			<data auto_broadcast="numpy"/>
			<input>
				<port id="0" precision="FP32">
					<dim>1</dim>
					<dim>48</dim>
					<dim>24</dim>
					<dim>32</dim>
				</port>
				<port id="1" precision="FP32">
					<dim>1</dim>
					<dim>48</dim>
					<dim>24</dim>
					<dim>32</dim>
				</port>
			</input>
			<output>
				<port id="2" precision="FP32" names="center_net_mobile_net_v2fpn_feature_extractor/model_1/model/block_4_add/add_StatefulPartitionedCall/center_net_mobile_net_v2fpn_feature_extractor/model_1/model/block_4_add/add:0">
					<dim>1</dim>
					<dim>48</dim>
					<dim>24</dim>
					<dim>32</dim>
				</port>
			</output>
		</layer>
		<layer id="77" name="Conv2D_11/filter" type="Const" version="opset1">
			<data element_type="f32" shape="288, 48, 1, 1" offset="361584" size="55296"/>
			<output>
				<port id="0" precision="FP32" names="Conv2D_11/filter:0">
					<dim>288</dim>
					<dim>48</dim>
					<dim>1</dim>
					<dim>1</dim>
				</port>
			</output>
		</layer>
		<layer id="78" name="Conv2D_11" type="Convolution" version="opset1">
			<data strides="1, 1" dilations="1, 1" pads_begin="0, 0" pads_end="0, 0" auto_pad="same_upper"/>
			<input>
				<port id="0" precision="FP32">
					<dim>1</dim>
					<dim>48</dim>
					<dim>24</dim>
					<dim>32</dim>
				</port>
				<port id="1" precision="FP32">
					<dim>288</dim>
					<dim>48</dim>
					<dim>1</dim>
					<dim>1</dim>
				</port>
			</input>
			<output>
				<port id="2" precision="FP32" names="Conv2D_11:0">
					<dim>1</dim>
					<dim>288</dim>
					<dim>24</dim>
					<dim>32</dim>
				</port>
			</output>
		</layer>
		<layer id="79" name="Add_10/y" type="Const" version="opset1">
			<data element_type="f32" shape="1, 288, 1, 1" offset="416880" size="1152"/>
			<output>
				<port id="0" precision="FP32" names="Add_10/y:0">
					<dim>1</dim>
					<dim>288</dim>
					<dim>1</dim>
					<dim>1</dim>
				</port>
			</output>
		</layer>
		<layer id="80" name="Add_10" type="Add" version="opset1">
			<data auto_broadcast="numpy"/>
			<input>
				<port id="0" precision="FP32">
					<dim>1</dim>
					<dim>288</dim>
					<dim>24</dim>
					<dim>32</dim>
				</port>
				<port id="1" precision="FP32">
					<dim>1</dim>
					<dim>288</dim>
					<dim>1</dim>
					<dim>1</dim>
				</port>
			</input>
			<output>
				<port id="2" precision="FP32" names="Add_10:0">
					<dim>1</dim>
					<dim>288</dim>
					<dim>24</dim>
					<dim>32</dim>
				</port>
			</output>
		</layer>
		<layer id="81" name="center_net_mobile_net_v2fpn_feature_extractor/model_1/model/block_5_expand_relu/Relu6_StatefulPartitionedCall/center_net_mobile_net_v2fpn_feature_extractor/model_1/model/block_5_expand_relu/Relu6_center_net_mobile_net_v2fpn_feature_extractor/model_1/model/block_5_expand_BN/FusedBatchNormV3_StatefulPartitionedCall/center_net_mobile_net_v2fpn_feature_extractor/model_1/model/block_5_expand_BN/FusedBatchNormV3_center_net_mobile_net_v2fpn_feature_extractor/model_1/model/block_6_depthwise_BN/FusedBatchNormV3_StatefulPartitionedCall/center_net_mobile_net_v2fpn_feature_extractor/model_1/model/block_6_depthwise_BN/FusedBatchNormV3_center_net_mobile_net_v2fpn_feature_extractor/model_1/model/block_6_depthwise/depthwise_StatefulPartitionedCall/center_net_mobile_net_v2fpn_feature_extractor/model_1/model/block_6_depthwise/depthwise_center_net_mobile_net_v2fpn_feature_extractor/model_1/model/block_5_expand/Conv2D_StatefulPartitionedCall/center_net_mobile_net_v2fpn_feature_extractor/model_1/model/block_5_expand/Conv2D" type="Clamp" version="opset1">
			<data min="0" max="6"/>
			<input>
				<port id="0" precision="FP32">
					<dim>1</dim>
					<dim>288</dim>
					<dim>24</dim>
					<dim>32</dim>
				</port>
			</input>
			<output>
				<port id="1" precision="FP32" names="center_net_mobile_net_v2fpn_feature_extractor/model_1/model/block_5_expand_relu/Relu6_StatefulPartitionedCall/center_net_mobile_net_v2fpn_feature_extractor/model_1/model/block_5_expand_relu/Relu6_center_net_mobile_net_v2fpn_feature_extractor/model_1/model/block_5_expand_BN/FusedBatchNormV3_StatefulPartitionedCall/center_net_mobile_net_v2fpn_feature_extractor/model_1/model/block_5_expand_BN/FusedBatchNormV3_center_net_mobile_net_v2fpn_feature_extractor/model_1/model/block_6_depthwise_BN/FusedBatchNormV3_StatefulPartitionedCall/center_net_mobile_net_v2fpn_feature_extractor/model_1/model/block_6_depthwise_BN/FusedBatchNormV3_center_net_mobile_net_v2fpn_feature_extractor/model_1/model/block_6_depthwise/depthwise_StatefulPartitionedCall/center_net_mobile_net_v2fpn_feature_extractor/model_1/model/block_6_depthwise/depthwise_center_net_mobile_net_v2fpn_feature_extractor/model_1/model/block_5_expand/Conv2D_StatefulPartitionedCall/center_net_mobile_net_v2fpn_feature_extractor/model_1/model/block_5_expand/Conv2D:0">
					<dim>1</dim>
					<dim>288</dim>
					<dim>24</dim>
					<dim>32</dim>
				</port>
			</output>
		</layer>
		<layer id="82" name="depthwise_5/filter_in" type="Const" version="opset1">
			<data element_type="f32" shape="288, 1, 1, 3, 3" offset="418032" size="10368"/>
			<output>
				<port id="0" precision="FP32" names="depthwise_5/filter_in:0">
					<dim>288</dim>
					<dim>1</dim>
					<dim>1</dim>
					<dim>3</dim>
					<dim>3</dim>
				</port>
			</output>
		</layer>
		<layer id="83" name="depthwise_5" type="GroupConvolution" version="opset1">
			<data strides="1, 1" pads_begin="1, 1" pads_end="1, 1" dilations="1, 1" auto_pad="same_upper"/>
			<input>
				<port id="0" precision="FP32">
					<dim>1</dim>
					<dim>288</dim>
					<dim>24</dim>
					<dim>32</dim>
				</port>
				<port id="1" precision="FP32">
					<dim>288</dim>
					<dim>1</dim>
					<dim>1</dim>
					<dim>3</dim>
					<dim>3</dim>
				</port>
			</input>
			<output>
				<port id="2" precision="FP32" names="depthwise_5:0">
					<dim>1</dim>
					<dim>288</dim>
					<dim>24</dim>
					<dim>32</dim>
				</port>
			</output>
		</layer>
		<layer id="84" name="Add_11/y" type="Const" version="opset1">
			<data element_type="f32" shape="1, 288, 1, 1" offset="428400" size="1152"/>
			<output>
				<port id="0" precision="FP32" names="Add_11/y:0">
					<dim>1</dim>
					<dim>288</dim>
					<dim>1</dim>
					<dim>1</dim>
				</port>
			</output>
		</layer>
		<layer id="85" name="Add_11" type="Add" version="opset1">
			<data auto_broadcast="numpy"/>
			<input>
				<port id="0" precision="FP32">
					<dim>1</dim>
					<dim>288</dim>
					<dim>24</dim>
					<dim>32</dim>
				</port>
				<port id="1" precision="FP32">
					<dim>1</dim>
					<dim>288</dim>
					<dim>1</dim>
					<dim>1</dim>
				</port>
			</input>
			<output>
				<port id="2" precision="FP32" names="Add_11:0">
					<dim>1</dim>
					<dim>288</dim>
					<dim>24</dim>
					<dim>32</dim>
				</port>
			</output>
		</layer>
		<layer id="86" name="center_net_mobile_net_v2fpn_feature_extractor/model_1/model/block_5_depthwise_relu/Relu6_StatefulPartitionedCall/center_net_mobile_net_v2fpn_feature_extractor/model_1/model/block_5_depthwise_relu/Relu6_center_net_mobile_net_v2fpn_feature_extractor/model_1/model/block_5_depthwise_BN/FusedBatchNormV3_StatefulPartitionedCall/center_net_mobile_net_v2fpn_feature_extractor/model_1/model/block_5_depthwise_BN/FusedBatchNormV3_center_net_mobile_net_v2fpn_feature_extractor/model_1/model/block_6_depthwise_BN/FusedBatchNormV3_StatefulPartitionedCall/center_net_mobile_net_v2fpn_feature_extractor/model_1/model/block_6_depthwise_BN/FusedBatchNormV3_center_net_mobile_net_v2fpn_feature_extractor/model_1/model/block_6_depthwise/depthwise_StatefulPartitionedCall/center_net_mobile_net_v2fpn_feature_extractor/model_1/model/block_6_depthwise/depthwise_center_net_mobile_net_v2fpn_feature_extractor/model_1/model/block_5_depthwise/depthwise_StatefulPartitionedCall/center_net_mobile_net_v2fpn_feature_extractor/model_1/model/block_5_depthwise/depthwise" type="Clamp" version="opset1">
			<data min="0" max="6"/>
			<input>
				<port id="0" precision="FP32">
					<dim>1</dim>
					<dim>288</dim>
					<dim>24</dim>
					<dim>32</dim>
				</port>
			</input>
			<output>
				<port id="1" precision="FP32" names="center_net_mobile_net_v2fpn_feature_extractor/model_1/model/block_5_depthwise_relu/Relu6_StatefulPartitionedCall/center_net_mobile_net_v2fpn_feature_extractor/model_1/model/block_5_depthwise_relu/Relu6_center_net_mobile_net_v2fpn_feature_extractor/model_1/model/block_5_depthwise_BN/FusedBatchNormV3_StatefulPartitionedCall/center_net_mobile_net_v2fpn_feature_extractor/model_1/model/block_5_depthwise_BN/FusedBatchNormV3_center_net_mobile_net_v2fpn_feature_extractor/model_1/model/block_6_depthwise_BN/FusedBatchNormV3_StatefulPartitionedCall/center_net_mobile_net_v2fpn_feature_extractor/model_1/model/block_6_depthwise_BN/FusedBatchNormV3_center_net_mobile_net_v2fpn_feature_extractor/model_1/model/block_6_depthwise/depthwise_StatefulPartitionedCall/center_net_mobile_net_v2fpn_feature_extractor/model_1/model/block_6_depthwise/depthwise_center_net_mobile_net_v2fpn_feature_extractor/model_1/model/block_5_depthwise/depthwise_StatefulPartitionedCall/center_net_mobile_net_v2fpn_feature_extractor/model_1/model/block_5_depthwise/depthwise:0">
					<dim>1</dim>
					<dim>288</dim>
					<dim>24</dim>
					<dim>32</dim>
				</port>
			</output>
		</layer>
		<layer id="87" name="Conv2D_12/filter" type="Const" version="opset1">
			<data element_type="f32" shape="48, 288, 1, 1" offset="429552" size="55296"/>
			<output>
				<port id="0" precision="FP32" names="Conv2D_12/filter:0">
					<dim>48</dim>
					<dim>288</dim>
					<dim>1</dim>
					<dim>1</dim>
				</port>
			</output>
		</layer>
		<layer id="88" name="Conv2D_12" type="Convolution" version="opset1">
			<data strides="1, 1" dilations="1, 1" pads_begin="0, 0" pads_end="0, 0" auto_pad="same_upper"/>
			<input>
				<port id="0" precision="FP32">
					<dim>1</dim>
					<dim>288</dim>
					<dim>24</dim>
					<dim>32</dim>
				</port>
				<port id="1" precision="FP32">
					<dim>48</dim>
					<dim>288</dim>
					<dim>1</dim>
					<dim>1</dim>
				</port>
			</input>
			<output>
				<port id="2" precision="FP32" names="Conv2D_12:0">
					<dim>1</dim>
					<dim>48</dim>
					<dim>24</dim>
					<dim>32</dim>
				</port>
			</output>
		</layer>
		<layer id="89" name="center_net_mobile_net_v2fpn_feature_extractor/model_1/model/block_5_project_BN/FusedBatchNormV3_StatefulPartitionedCall/center_net_mobile_net_v2fpn_feature_extractor/model_1/model/block_5_project_BN/FusedBatchNormV3_center_net_mobile_net_v2fpn_feature_extractor/model_1/model/block_5_project/Conv2D_StatefulPartitionedCall/center_net_mobile_net_v2fpn_feature_extractor/model_1/model/block_5_project/Conv2D1/y" type="Const" version="opset1">
			<data element_type="f32" shape="1, 48, 1, 1" offset="484848" size="192"/>
			<output>
				<port id="0" precision="FP32" names="center_net_mobile_net_v2fpn_feature_extractor/model_1/model/block_5_project_BN/FusedBatchNormV3_StatefulPartitionedCall/center_net_mobile_net_v2fpn_feature_extractor/model_1/model/block_5_project_BN/FusedBatchNormV3_center_net_mobile_net_v2fpn_feature_extractor/model_1/model/block_5_project/Conv2D_StatefulPartitionedCall/center_net_mobile_net_v2fpn_feature_extractor/model_1/model/block_5_project/Conv2D1/y:0">
					<dim>1</dim>
					<dim>48</dim>
					<dim>1</dim>
					<dim>1</dim>
				</port>
			</output>
		</layer>
		<layer id="90" name="center_net_mobile_net_v2fpn_feature_extractor/model_1/model/block_5_project_BN/FusedBatchNormV3_StatefulPartitionedCall/center_net_mobile_net_v2fpn_feature_extractor/model_1/model/block_5_project_BN/FusedBatchNormV3_center_net_mobile_net_v2fpn_feature_extractor/model_1/model/block_5_project/Conv2D_StatefulPartitionedCall/center_net_mobile_net_v2fpn_feature_extractor/model_1/model/block_5_project/Conv2D1" type="Add" version="opset1">
			<data auto_broadcast="numpy"/>
			<input>
				<port id="0" precision="FP32">
					<dim>1</dim>
					<dim>48</dim>
					<dim>24</dim>
					<dim>32</dim>
				</port>
				<port id="1" precision="FP32">
					<dim>1</dim>
					<dim>48</dim>
					<dim>1</dim>
					<dim>1</dim>
				</port>
			</input>
			<output>
				<port id="2" precision="FP32" names="center_net_mobile_net_v2fpn_feature_extractor/model_1/model/block_5_project_BN/FusedBatchNormV3_StatefulPartitionedCall/center_net_mobile_net_v2fpn_feature_extractor/model_1/model/block_5_project_BN/FusedBatchNormV3_center_net_mobile_net_v2fpn_feature_extractor/model_1/model/block_5_project/Conv2D_StatefulPartitionedCall/center_net_mobile_net_v2fpn_feature_extractor/model_1/model/block_5_project/Conv2D1:0">
					<dim>1</dim>
					<dim>48</dim>
					<dim>24</dim>
					<dim>32</dim>
				</port>
			</output>
		</layer>
		<layer id="91" name="center_net_mobile_net_v2fpn_feature_extractor/model_1/model/block_5_add/add_StatefulPartitionedCall/center_net_mobile_net_v2fpn_feature_extractor/model_1/model/block_5_add/add" type="Add" version="opset1">
			<data auto_broadcast="numpy"/>
			<input>
				<port id="0" precision="FP32">
					<dim>1</dim>
					<dim>48</dim>
					<dim>24</dim>
					<dim>32</dim>
				</port>
				<port id="1" precision="FP32">
					<dim>1</dim>
					<dim>48</dim>
					<dim>24</dim>
					<dim>32</dim>
				</port>
			</input>
			<output>
				<port id="2" precision="FP32" names="center_net_mobile_net_v2fpn_feature_extractor/model_1/model/block_5_add/add_StatefulPartitionedCall/center_net_mobile_net_v2fpn_feature_extractor/model_1/model/block_5_add/add:0">
					<dim>1</dim>
					<dim>48</dim>
					<dim>24</dim>
					<dim>32</dim>
				</port>
			</output>
		</layer>
		<layer id="92" name="Conv2D_14/filter" type="Const" version="opset1">
			<data element_type="f32" shape="288, 48, 1, 1" offset="485040" size="55296"/>
			<output>
				<port id="0" precision="FP32" names="Conv2D_14/filter:0">
					<dim>288</dim>
					<dim>48</dim>
					<dim>1</dim>
					<dim>1</dim>
				</port>
			</output>
		</layer>
		<layer id="93" name="Conv2D_14" type="Convolution" version="opset1">
			<data strides="1, 1" dilations="1, 1" pads_begin="0, 0" pads_end="0, 0" auto_pad="same_upper"/>
			<input>
				<port id="0" precision="FP32">
					<dim>1</dim>
					<dim>48</dim>
					<dim>24</dim>
					<dim>32</dim>
				</port>
				<port id="1" precision="FP32">
					<dim>288</dim>
					<dim>48</dim>
					<dim>1</dim>
					<dim>1</dim>
				</port>
			</input>
			<output>
				<port id="2" precision="FP32" names="Conv2D_14:0">
					<dim>1</dim>
					<dim>288</dim>
					<dim>24</dim>
					<dim>32</dim>
				</port>
			</output>
		</layer>
		<layer id="94" name="Add_12/y" type="Const" version="opset1">
			<data element_type="f32" shape="1, 288, 1, 1" offset="540336" size="1152"/>
			<output>
				<port id="0" precision="FP32" names="Add_12/y:0">
					<dim>1</dim>
					<dim>288</dim>
					<dim>1</dim>
					<dim>1</dim>
				</port>
			</output>
		</layer>
		<layer id="95" name="Add_12" type="Add" version="opset1">
			<data auto_broadcast="numpy"/>
			<input>
				<port id="0" precision="FP32">
					<dim>1</dim>
					<dim>288</dim>
					<dim>24</dim>
					<dim>32</dim>
				</port>
				<port id="1" precision="FP32">
					<dim>1</dim>
					<dim>288</dim>
					<dim>1</dim>
					<dim>1</dim>
				</port>
			</input>
			<output>
				<port id="2" precision="FP32" names="Add_12:0">
					<dim>1</dim>
					<dim>288</dim>
					<dim>24</dim>
					<dim>32</dim>
				</port>
			</output>
		</layer>
		<layer id="96" name="center_net_mobile_net_v2fpn_feature_extractor/model_1/model/block_6_expand_relu/Relu6_StatefulPartitionedCall/center_net_mobile_net_v2fpn_feature_extractor/model_1/model/block_6_expand_relu/Relu6_center_net_mobile_net_v2fpn_feature_extractor/model_1/model/block_6_expand_BN/FusedBatchNormV3_StatefulPartitionedCall/center_net_mobile_net_v2fpn_feature_extractor/model_1/model/block_6_expand_BN/FusedBatchNormV3_center_net_mobile_net_v2fpn_feature_extractor/model_1/model/block_6_depthwise_BN/FusedBatchNormV3_StatefulPartitionedCall/center_net_mobile_net_v2fpn_feature_extractor/model_1/model/block_6_depthwise_BN/FusedBatchNormV3_center_net_mobile_net_v2fpn_feature_extractor/model_1/model/block_6_depthwise/depthwise_StatefulPartitionedCall/center_net_mobile_net_v2fpn_feature_extractor/model_1/model/block_6_depthwise/depthwise_center_net_mobile_net_v2fpn_feature_extractor/model_1/model/block_6_expand/Conv2D_StatefulPartitionedCall/center_net_mobile_net_v2fpn_feature_extractor/model_1/model/block_6_expand/Conv2D" type="Clamp" version="opset1">
			<data min="0" max="6"/>
			<input>
				<port id="0" precision="FP32">
					<dim>1</dim>
					<dim>288</dim>
					<dim>24</dim>
					<dim>32</dim>
				</port>
			</input>
			<output>
				<port id="1" precision="FP32" names="center_net_mobile_net_v2fpn_feature_extractor/model_1/model/block_6_expand_relu/Relu6_StatefulPartitionedCall/center_net_mobile_net_v2fpn_feature_extractor/model_1/model/block_6_expand_relu/Relu6_center_net_mobile_net_v2fpn_feature_extractor/model_1/model/block_6_expand_BN/FusedBatchNormV3_StatefulPartitionedCall/center_net_mobile_net_v2fpn_feature_extractor/model_1/model/block_6_expand_BN/FusedBatchNormV3_center_net_mobile_net_v2fpn_feature_extractor/model_1/model/block_6_depthwise_BN/FusedBatchNormV3_StatefulPartitionedCall/center_net_mobile_net_v2fpn_feature_extractor/model_1/model/block_6_depthwise_BN/FusedBatchNormV3_center_net_mobile_net_v2fpn_feature_extractor/model_1/model/block_6_depthwise/depthwise_StatefulPartitionedCall/center_net_mobile_net_v2fpn_feature_extractor/model_1/model/block_6_depthwise/depthwise_center_net_mobile_net_v2fpn_feature_extractor/model_1/model/block_6_expand/Conv2D_StatefulPartitionedCall/center_net_mobile_net_v2fpn_feature_extractor/model_1/model/block_6_expand/Conv2D:0">
					<dim>1</dim>
					<dim>288</dim>
					<dim>24</dim>
					<dim>32</dim>
				</port>
			</output>
		</layer>
		<layer id="97" name="depthwise_6/filter_in" type="Const" version="opset1">
			<data element_type="f32" shape="288, 1, 1, 3, 3" offset="541488" size="10368"/>
			<output>
				<port id="0" precision="FP32" names="depthwise_6/filter_in:0">
					<dim>288</dim>
					<dim>1</dim>
					<dim>1</dim>
					<dim>3</dim>
					<dim>3</dim>
				</port>
			</output>
		</layer>
		<layer id="98" name="depthwise_6" type="GroupConvolution" version="opset1">
			<data strides="2, 2" pads_begin="0, 0" pads_end="1, 1" dilations="1, 1" auto_pad="same_upper"/>
			<input>
				<port id="0" precision="FP32">
					<dim>1</dim>
					<dim>288</dim>
					<dim>24</dim>
					<dim>32</dim>
				</port>
				<port id="1" precision="FP32">
					<dim>288</dim>
					<dim>1</dim>
					<dim>1</dim>
					<dim>3</dim>
					<dim>3</dim>
				</port>
			</input>
			<output>
				<port id="2" precision="FP32" names="depthwise_6:0">
					<dim>1</dim>
					<dim>288</dim>
					<dim>12</dim>
					<dim>16</dim>
				</port>
			</output>
		</layer>
		<layer id="99" name="Add_13/y" type="Const" version="opset1">
			<data element_type="f32" shape="1, 288, 1, 1" offset="551856" size="1152"/>
			<output>
				<port id="0" precision="FP32" names="Add_13/y:0">
					<dim>1</dim>
					<dim>288</dim>
					<dim>1</dim>
					<dim>1</dim>
				</port>
			</output>
		</layer>
		<layer id="100" name="Add_13" type="Add" version="opset1">
			<data auto_broadcast="numpy"/>
			<input>
				<port id="0" precision="FP32">
					<dim>1</dim>
					<dim>288</dim>
					<dim>12</dim>
					<dim>16</dim>
				</port>
				<port id="1" precision="FP32">
					<dim>1</dim>
					<dim>288</dim>
					<dim>1</dim>
					<dim>1</dim>
				</port>
			</input>
			<output>
				<port id="2" precision="FP32" names="Add_13:0">
					<dim>1</dim>
					<dim>288</dim>
					<dim>12</dim>
					<dim>16</dim>
				</port>
			</output>
		</layer>
		<layer id="101" name="center_net_mobile_net_v2fpn_feature_extractor/model_1/model/block_6_depthwise_relu/Relu6_StatefulPartitionedCall/center_net_mobile_net_v2fpn_feature_extractor/model_1/model/block_6_depthwise_relu/Relu6_center_net_mobile_net_v2fpn_feature_extractor/model_1/model/block_6_depthwise_BN/FusedBatchNormV3_StatefulPartitionedCall/center_net_mobile_net_v2fpn_feature_extractor/model_1/model/block_6_depthwise_BN/FusedBatchNormV3_center_net_mobile_net_v2fpn_feature_extractor/model_1/model/block_6_depthwise/depthwise_StatefulPartitionedCall/center_net_mobile_net_v2fpn_feature_extractor/model_1/model/block_6_depthwise/depthwise" type="Clamp" version="opset1">
			<data min="0" max="6"/>
			<input>
				<port id="0" precision="FP32">
					<dim>1</dim>
					<dim>288</dim>
					<dim>12</dim>
					<dim>16</dim>
				</port>
			</input>
			<output>
				<port id="1" precision="FP32" names="center_net_mobile_net_v2fpn_feature_extractor/model_1/model/block_6_depthwise_relu/Relu6_StatefulPartitionedCall/center_net_mobile_net_v2fpn_feature_extractor/model_1/model/block_6_depthwise_relu/Relu6_center_net_mobile_net_v2fpn_feature_extractor/model_1/model/block_6_depthwise_BN/FusedBatchNormV3_StatefulPartitionedCall/center_net_mobile_net_v2fpn_feature_extractor/model_1/model/block_6_depthwise_BN/FusedBatchNormV3_center_net_mobile_net_v2fpn_feature_extractor/model_1/model/block_6_depthwise/depthwise_StatefulPartitionedCall/center_net_mobile_net_v2fpn_feature_extractor/model_1/model/block_6_depthwise/depthwise:0">
					<dim>1</dim>
					<dim>288</dim>
					<dim>12</dim>
					<dim>16</dim>
				</port>
			</output>
		</layer>
		<layer id="102" name="Conv2D_15/filter" type="Const" version="opset1">
			<data element_type="f32" shape="96, 288, 1, 1" offset="553008" size="110592"/>
			<output>
				<port id="0" precision="FP32" names="Conv2D_15/filter:0">
					<dim>96</dim>
					<dim>288</dim>
					<dim>1</dim>
					<dim>1</dim>
				</port>
			</output>
		</layer>
		<layer id="103" name="Conv2D_15" type="Convolution" version="opset1">
			<data strides="1, 1" dilations="1, 1" pads_begin="0, 0" pads_end="0, 0" auto_pad="same_upper"/>
			<input>
				<port id="0" precision="FP32">
					<dim>1</dim>
					<dim>288</dim>
					<dim>12</dim>
					<dim>16</dim>
				</port>
				<port id="1" precision="FP32">
					<dim>96</dim>
					<dim>288</dim>
					<dim>1</dim>
					<dim>1</dim>
				</port>
			</input>
			<output>
				<port id="2" precision="FP32" names="Conv2D_15:0">
					<dim>1</dim>
					<dim>96</dim>
					<dim>12</dim>
					<dim>16</dim>
				</port>
			</output>
		</layer>
		<layer id="104" name="center_net_mobile_net_v2fpn_feature_extractor/model_1/model/block_6_project_BN/FusedBatchNormV3_StatefulPartitionedCall/center_net_mobile_net_v2fpn_feature_extractor/model_1/model/block_6_project_BN/FusedBatchNormV3_kpt_regress_0/separable_conv2d_7/separable_conv2d_StatefulPartitionedCall/kpt_regress_0/separable_conv2d_7/separable_conv2d_center_net_mobile_net_v2fpn_feature_extractor/model_1/model/block_6_project/Conv2D_StatefulPartitionedCall/center_net_mobile_net_v2fpn_feature_extractor/model_1/model/block_6_project/Conv2D1/y" type="Const" version="opset1">
			<data element_type="f32" shape="1, 96, 1, 1" offset="663600" size="384"/>
			<output>
				<port id="0" precision="FP32" names="center_net_mobile_net_v2fpn_feature_extractor/model_1/model/block_6_project_BN/FusedBatchNormV3_StatefulPartitionedCall/center_net_mobile_net_v2fpn_feature_extractor/model_1/model/block_6_project_BN/FusedBatchNormV3_kpt_regress_0/separable_conv2d_7/separable_conv2d_StatefulPartitionedCall/kpt_regress_0/separable_conv2d_7/separable_conv2d_center_net_mobile_net_v2fpn_feature_extractor/model_1/model/block_6_project/Conv2D_StatefulPartitionedCall/center_net_mobile_net_v2fpn_feature_extractor/model_1/model/block_6_project/Conv2D1/y:0">
					<dim>1</dim>
					<dim>96</dim>
					<dim>1</dim>
					<dim>1</dim>
				</port>
			</output>
		</layer>
		<layer id="105" name="center_net_mobile_net_v2fpn_feature_extractor/model_1/model/block_6_project_BN/FusedBatchNormV3_StatefulPartitionedCall/center_net_mobile_net_v2fpn_feature_extractor/model_1/model/block_6_project_BN/FusedBatchNormV3_kpt_regress_0/separable_conv2d_7/separable_conv2d_StatefulPartitionedCall/kpt_regress_0/separable_conv2d_7/separable_conv2d_center_net_mobile_net_v2fpn_feature_extractor/model_1/model/block_6_project/Conv2D_StatefulPartitionedCall/center_net_mobile_net_v2fpn_feature_extractor/model_1/model/block_6_project/Conv2D1" type="Add" version="opset1">
			<data auto_broadcast="numpy"/>
			<input>
				<port id="0" precision="FP32">
					<dim>1</dim>
					<dim>96</dim>
					<dim>12</dim>
					<dim>16</dim>
				</port>
				<port id="1" precision="FP32">
					<dim>1</dim>
					<dim>96</dim>
					<dim>1</dim>
					<dim>1</dim>
				</port>
			</input>
			<output>
				<port id="2" precision="FP32" names="center_net_mobile_net_v2fpn_feature_extractor/model_1/model/block_6_project_BN/FusedBatchNormV3_StatefulPartitionedCall/center_net_mobile_net_v2fpn_feature_extractor/model_1/model/block_6_project_BN/FusedBatchNormV3_kpt_regress_0/separable_conv2d_7/separable_conv2d_StatefulPartitionedCall/kpt_regress_0/separable_conv2d_7/separable_conv2d_center_net_mobile_net_v2fpn_feature_extractor/model_1/model/block_6_project/Conv2D_StatefulPartitionedCall/center_net_mobile_net_v2fpn_feature_extractor/model_1/model/block_6_project/Conv2D1:0">
					<dim>1</dim>
					<dim>96</dim>
					<dim>12</dim>
					<dim>16</dim>
				</port>
			</output>
		</layer>
		<layer id="106" name="Conv2D_16/filter" type="Const" version="opset1">
			<data element_type="f32" shape="576, 96, 1, 1" offset="663984" size="221184"/>
			<output>
				<port id="0" precision="FP32" names="Conv2D_16/filter:0">
					<dim>576</dim>
					<dim>96</dim>
					<dim>1</dim>
					<dim>1</dim>
				</port>
			</output>
		</layer>
		<layer id="107" name="Conv2D_16" type="Convolution" version="opset1">
			<data strides="1, 1" dilations="1, 1" pads_begin="0, 0" pads_end="0, 0" auto_pad="same_upper"/>
			<input>
				<port id="0" precision="FP32">
					<dim>1</dim>
					<dim>96</dim>
					<dim>12</dim>
					<dim>16</dim>
				</port>
				<port id="1" precision="FP32">
					<dim>576</dim>
					<dim>96</dim>
					<dim>1</dim>
					<dim>1</dim>
				</port>
			</input>
			<output>
				<port id="2" precision="FP32" names="Conv2D_16:0">
					<dim>1</dim>
					<dim>576</dim>
					<dim>12</dim>
					<dim>16</dim>
				</port>
			</output>
		</layer>
		<layer id="108" name="Add_14/y" type="Const" version="opset1">
			<data element_type="f32" shape="1, 576, 1, 1" offset="885168" size="2304"/>
			<output>
				<port id="0" precision="FP32" names="Add_14/y:0">
					<dim>1</dim>
					<dim>576</dim>
					<dim>1</dim>
					<dim>1</dim>
				</port>
			</output>
		</layer>
		<layer id="109" name="Add_14" type="Add" version="opset1">
			<data auto_broadcast="numpy"/>
			<input>
				<port id="0" precision="FP32">
					<dim>1</dim>
					<dim>576</dim>
					<dim>12</dim>
					<dim>16</dim>
				</port>
				<port id="1" precision="FP32">
					<dim>1</dim>
					<dim>576</dim>
					<dim>1</dim>
					<dim>1</dim>
				</port>
			</input>
			<output>
				<port id="2" precision="FP32" names="Add_14:0">
					<dim>1</dim>
					<dim>576</dim>
					<dim>12</dim>
					<dim>16</dim>
				</port>
			</output>
		</layer>
		<layer id="110" name="center_net_mobile_net_v2fpn_feature_extractor/model_1/model/block_7_expand_relu/Relu6_StatefulPartitionedCall/center_net_mobile_net_v2fpn_feature_extractor/model_1/model/block_7_expand_relu/Relu6_center_net_mobile_net_v2fpn_feature_extractor/model_1/model/block_7_expand_BN/FusedBatchNormV3_StatefulPartitionedCall/center_net_mobile_net_v2fpn_feature_extractor/model_1/model/block_7_expand_BN/FusedBatchNormV3_center_net_mobile_net_v2fpn_feature_extractor/model_1/model/block_10_depthwise_BN/FusedBatchNormV3_StatefulPartitionedCall/center_net_mobile_net_v2fpn_feature_extractor/model_1/model/block_10_depthwise_BN/FusedBatchNormV3_center_net_mobile_net_v2fpn_feature_extractor/model_1/model/block_10_depthwise/depthwise_StatefulPartitionedCall/center_net_mobile_net_v2fpn_feature_extractor/model_1/model/block_10_depthwise/depthwise_center_net_mobile_net_v2fpn_feature_extractor/model_1/model/block_7_expand/Conv2D_StatefulPartitionedCall/center_net_mobile_net_v2fpn_feature_extractor/model_1/model/block_7_expand/Conv2D" type="Clamp" version="opset1">
			<data min="0" max="6"/>
			<input>
				<port id="0" precision="FP32">
					<dim>1</dim>
					<dim>576</dim>
					<dim>12</dim>
					<dim>16</dim>
				</port>
			</input>
			<output>
				<port id="1" precision="FP32" names="center_net_mobile_net_v2fpn_feature_extractor/model_1/model/block_7_expand_relu/Relu6_StatefulPartitionedCall/center_net_mobile_net_v2fpn_feature_extractor/model_1/model/block_7_expand_relu/Relu6_center_net_mobile_net_v2fpn_feature_extractor/model_1/model/block_7_expand_BN/FusedBatchNormV3_StatefulPartitionedCall/center_net_mobile_net_v2fpn_feature_extractor/model_1/model/block_7_expand_BN/FusedBatchNormV3_center_net_mobile_net_v2fpn_feature_extractor/model_1/model/block_10_depthwise_BN/FusedBatchNormV3_StatefulPartitionedCall/center_net_mobile_net_v2fpn_feature_extractor/model_1/model/block_10_depthwise_BN/FusedBatchNormV3_center_net_mobile_net_v2fpn_feature_extractor/model_1/model/block_10_depthwise/depthwise_StatefulPartitionedCall/center_net_mobile_net_v2fpn_feature_extractor/model_1/model/block_10_depthwise/depthwise_center_net_mobile_net_v2fpn_feature_extractor/model_1/model/block_7_expand/Conv2D_StatefulPartitionedCall/center_net_mobile_net_v2fpn_feature_extractor/model_1/model/block_7_expand/Conv2D:0">
					<dim>1</dim>
					<dim>576</dim>
					<dim>12</dim>
					<dim>16</dim>
				</port>
			</output>
		</layer>
		<layer id="111" name="depthwise_7/filter_in" type="Const" version="opset1">
			<data element_type="f32" shape="576, 1, 1, 3, 3" offset="887472" size="20736"/>
			<output>
				<port id="0" precision="FP32" names="depthwise_7/filter_in:0">
					<dim>576</dim>
					<dim>1</dim>
					<dim>1</dim>
					<dim>3</dim>
					<dim>3</dim>
				</port>
			</output>
		</layer>
		<layer id="112" name="depthwise_7" type="GroupConvolution" version="opset1">
			<data strides="1, 1" pads_begin="1, 1" pads_end="1, 1" dilations="1, 1" auto_pad="same_upper"/>
			<input>
				<port id="0" precision="FP32">
					<dim>1</dim>
					<dim>576</dim>
					<dim>12</dim>
					<dim>16</dim>
				</port>
				<port id="1" precision="FP32">
					<dim>576</dim>
					<dim>1</dim>
					<dim>1</dim>
					<dim>3</dim>
					<dim>3</dim>
				</port>
			</input>
			<output>
				<port id="2" precision="FP32" names="depthwise_7:0">
					<dim>1</dim>
					<dim>576</dim>
					<dim>12</dim>
					<dim>16</dim>
				</port>
			</output>
		</layer>
		<layer id="113" name="Add_15/y" type="Const" version="opset1">
			<data element_type="f32" shape="1, 576, 1, 1" offset="908208" size="2304"/>
			<output>
				<port id="0" precision="FP32" names="Add_15/y:0">
					<dim>1</dim>
					<dim>576</dim>
					<dim>1</dim>
					<dim>1</dim>
				</port>
			</output>
		</layer>
		<layer id="114" name="Add_15" type="Add" version="opset1">
			<data auto_broadcast="numpy"/>
			<input>
				<port id="0" precision="FP32">
					<dim>1</dim>
					<dim>576</dim>
					<dim>12</dim>
					<dim>16</dim>
				</port>
				<port id="1" precision="FP32">
					<dim>1</dim>
					<dim>576</dim>
					<dim>1</dim>
					<dim>1</dim>
				</port>
			</input>
			<output>
				<port id="2" precision="FP32" names="Add_15:0">
					<dim>1</dim>
					<dim>576</dim>
					<dim>12</dim>
					<dim>16</dim>
				</port>
			</output>
		</layer>
		<layer id="115" name="center_net_mobile_net_v2fpn_feature_extractor/model_1/model/block_7_depthwise_relu/Relu6_StatefulPartitionedCall/center_net_mobile_net_v2fpn_feature_extractor/model_1/model/block_7_depthwise_relu/Relu6_center_net_mobile_net_v2fpn_feature_extractor/model_1/model/block_7_depthwise_BN/FusedBatchNormV3_StatefulPartitionedCall/center_net_mobile_net_v2fpn_feature_extractor/model_1/model/block_7_depthwise_BN/FusedBatchNormV3_center_net_mobile_net_v2fpn_feature_extractor/model_1/model/block_10_depthwise_BN/FusedBatchNormV3_StatefulPartitionedCall/center_net_mobile_net_v2fpn_feature_extractor/model_1/model/block_10_depthwise_BN/FusedBatchNormV3_center_net_mobile_net_v2fpn_feature_extractor/model_1/model/block_10_depthwise/depthwise_StatefulPartitionedCall/center_net_mobile_net_v2fpn_feature_extractor/model_1/model/block_10_depthwise/depthwise_center_net_mobile_net_v2fpn_feature_extractor/model_1/model/block_7_depthwise/depthwise_StatefulPartitionedCall/center_net_mobile_net_v2fpn_feature_extractor/model_1/model/block_7_depthwise/depthwise" type="Clamp" version="opset1">
			<data min="0" max="6"/>
			<input>
				<port id="0" precision="FP32">
					<dim>1</dim>
					<dim>576</dim>
					<dim>12</dim>
					<dim>16</dim>
				</port>
			</input>
			<output>
				<port id="1" precision="FP32" names="center_net_mobile_net_v2fpn_feature_extractor/model_1/model/block_7_depthwise_relu/Relu6_StatefulPartitionedCall/center_net_mobile_net_v2fpn_feature_extractor/model_1/model/block_7_depthwise_relu/Relu6_center_net_mobile_net_v2fpn_feature_extractor/model_1/model/block_7_depthwise_BN/FusedBatchNormV3_StatefulPartitionedCall/center_net_mobile_net_v2fpn_feature_extractor/model_1/model/block_7_depthwise_BN/FusedBatchNormV3_center_net_mobile_net_v2fpn_feature_extractor/model_1/model/block_10_depthwise_BN/FusedBatchNormV3_StatefulPartitionedCall/center_net_mobile_net_v2fpn_feature_extractor/model_1/model/block_10_depthwise_BN/FusedBatchNormV3_center_net_mobile_net_v2fpn_feature_extractor/model_1/model/block_10_depthwise/depthwise_StatefulPartitionedCall/center_net_mobile_net_v2fpn_feature_extractor/model_1/model/block_10_depthwise/depthwise_center_net_mobile_net_v2fpn_feature_extractor/model_1/model/block_7_depthwise/depthwise_StatefulPartitionedCall/center_net_mobile_net_v2fpn_feature_extractor/model_1/model/block_7_depthwise/depthwise:0">
					<dim>1</dim>
					<dim>576</dim>
					<dim>12</dim>
					<dim>16</dim>
				</port>
			</output>
		</layer>
		<layer id="116" name="Conv2D_17/filter" type="Const" version="opset1">
			<data element_type="f32" shape="96, 576, 1, 1" offset="910512" size="221184"/>
			<output>
				<port id="0" precision="FP32" names="Conv2D_17/filter:0">
					<dim>96</dim>
					<dim>576</dim>
					<dim>1</dim>
					<dim>1</dim>
				</port>
			</output>
		</layer>
		<layer id="117" name="Conv2D_17" type="Convolution" version="opset1">
			<data strides="1, 1" dilations="1, 1" pads_begin="0, 0" pads_end="0, 0" auto_pad="same_upper"/>
			<input>
				<port id="0" precision="FP32">
					<dim>1</dim>
					<dim>576</dim>
					<dim>12</dim>
					<dim>16</dim>
				</port>
				<port id="1" precision="FP32">
					<dim>96</dim>
					<dim>576</dim>
					<dim>1</dim>
					<dim>1</dim>
				</port>
			</input>
			<output>
				<port id="2" precision="FP32" names="Conv2D_17:0">
					<dim>1</dim>
					<dim>96</dim>
					<dim>12</dim>
					<dim>16</dim>
				</port>
			</output>
		</layer>
		<layer id="118" name="center_net_mobile_net_v2fpn_feature_extractor/model_1/model/block_7_project_BN/FusedBatchNormV3_StatefulPartitionedCall/center_net_mobile_net_v2fpn_feature_extractor/model_1/model/block_7_project_BN/FusedBatchNormV3_kpt_regress_0/separable_conv2d_7/separable_conv2d_StatefulPartitionedCall/kpt_regress_0/separable_conv2d_7/separable_conv2d_center_net_mobile_net_v2fpn_feature_extractor/model_1/model/block_7_project/Conv2D_StatefulPartitionedCall/center_net_mobile_net_v2fpn_feature_extractor/model_1/model/block_7_project/Conv2D1/y" type="Const" version="opset1">
			<data element_type="f32" shape="1, 96, 1, 1" offset="1131696" size="384"/>
			<output>
				<port id="0" precision="FP32" names="center_net_mobile_net_v2fpn_feature_extractor/model_1/model/block_7_project_BN/FusedBatchNormV3_StatefulPartitionedCall/center_net_mobile_net_v2fpn_feature_extractor/model_1/model/block_7_project_BN/FusedBatchNormV3_kpt_regress_0/separable_conv2d_7/separable_conv2d_StatefulPartitionedCall/kpt_regress_0/separable_conv2d_7/separable_conv2d_center_net_mobile_net_v2fpn_feature_extractor/model_1/model/block_7_project/Conv2D_StatefulPartitionedCall/center_net_mobile_net_v2fpn_feature_extractor/model_1/model/block_7_project/Conv2D1/y:0">
					<dim>1</dim>
					<dim>96</dim>
					<dim>1</dim>
					<dim>1</dim>
				</port>
			</output>
		</layer>
		<layer id="119" name="center_net_mobile_net_v2fpn_feature_extractor/model_1/model/block_7_project_BN/FusedBatchNormV3_StatefulPartitionedCall/center_net_mobile_net_v2fpn_feature_extractor/model_1/model/block_7_project_BN/FusedBatchNormV3_kpt_regress_0/separable_conv2d_7/separable_conv2d_StatefulPartitionedCall/kpt_regress_0/separable_conv2d_7/separable_conv2d_center_net_mobile_net_v2fpn_feature_extractor/model_1/model/block_7_project/Conv2D_StatefulPartitionedCall/center_net_mobile_net_v2fpn_feature_extractor/model_1/model/block_7_project/Conv2D1" type="Add" version="opset1">
			<data auto_broadcast="numpy"/>
			<input>
				<port id="0" precision="FP32">
					<dim>1</dim>
					<dim>96</dim>
					<dim>12</dim>
					<dim>16</dim>
				</port>
				<port id="1" precision="FP32">
					<dim>1</dim>
					<dim>96</dim>
					<dim>1</dim>
					<dim>1</dim>
				</port>
			</input>
			<output>
				<port id="2" precision="FP32" names="center_net_mobile_net_v2fpn_feature_extractor/model_1/model/block_7_project_BN/FusedBatchNormV3_StatefulPartitionedCall/center_net_mobile_net_v2fpn_feature_extractor/model_1/model/block_7_project_BN/FusedBatchNormV3_kpt_regress_0/separable_conv2d_7/separable_conv2d_StatefulPartitionedCall/kpt_regress_0/separable_conv2d_7/separable_conv2d_center_net_mobile_net_v2fpn_feature_extractor/model_1/model/block_7_project/Conv2D_StatefulPartitionedCall/center_net_mobile_net_v2fpn_feature_extractor/model_1/model/block_7_project/Conv2D1:0">
					<dim>1</dim>
					<dim>96</dim>
					<dim>12</dim>
					<dim>16</dim>
				</port>
			</output>
		</layer>
		<layer id="120" name="center_net_mobile_net_v2fpn_feature_extractor/model_1/model/block_7_add/add_StatefulPartitionedCall/center_net_mobile_net_v2fpn_feature_extractor/model_1/model/block_7_add/add" type="Add" version="opset1">
			<data auto_broadcast="numpy"/>
			<input>
				<port id="0" precision="FP32">
					<dim>1</dim>
					<dim>96</dim>
					<dim>12</dim>
					<dim>16</dim>
				</port>
				<port id="1" precision="FP32">
					<dim>1</dim>
					<dim>96</dim>
					<dim>12</dim>
					<dim>16</dim>
				</port>
			</input>
			<output>
				<port id="2" precision="FP32" names="center_net_mobile_net_v2fpn_feature_extractor/model_1/model/block_7_add/add_StatefulPartitionedCall/center_net_mobile_net_v2fpn_feature_extractor/model_1/model/block_7_add/add:0">
					<dim>1</dim>
					<dim>96</dim>
					<dim>12</dim>
					<dim>16</dim>
				</port>
			</output>
		</layer>
		<layer id="121" name="Conv2D_18/filter" type="Const" version="opset1">
			<data element_type="f32" shape="576, 96, 1, 1" offset="1132080" size="221184"/>
			<output>
				<port id="0" precision="FP32" names="Conv2D_18/filter:0">
					<dim>576</dim>
					<dim>96</dim>
					<dim>1</dim>
					<dim>1</dim>
				</port>
			</output>
		</layer>
		<layer id="122" name="Conv2D_18" type="Convolution" version="opset1">
			<data strides="1, 1" dilations="1, 1" pads_begin="0, 0" pads_end="0, 0" auto_pad="same_upper"/>
			<input>
				<port id="0" precision="FP32">
					<dim>1</dim>
					<dim>96</dim>
					<dim>12</dim>
					<dim>16</dim>
				</port>
				<port id="1" precision="FP32">
					<dim>576</dim>
					<dim>96</dim>
					<dim>1</dim>
					<dim>1</dim>
				</port>
			</input>
			<output>
				<port id="2" precision="FP32" names="Conv2D_18:0">
					<dim>1</dim>
					<dim>576</dim>
					<dim>12</dim>
					<dim>16</dim>
				</port>
			</output>
		</layer>
		<layer id="123" name="Add_16/y" type="Const" version="opset1">
			<data element_type="f32" shape="1, 576, 1, 1" offset="1353264" size="2304"/>
			<output>
				<port id="0" precision="FP32" names="Add_16/y:0">
					<dim>1</dim>
					<dim>576</dim>
					<dim>1</dim>
					<dim>1</dim>
				</port>
			</output>
		</layer>
		<layer id="124" name="Add_16" type="Add" version="opset1">
			<data auto_broadcast="numpy"/>
			<input>
				<port id="0" precision="FP32">
					<dim>1</dim>
					<dim>576</dim>
					<dim>12</dim>
					<dim>16</dim>
				</port>
				<port id="1" precision="FP32">
					<dim>1</dim>
					<dim>576</dim>
					<dim>1</dim>
					<dim>1</dim>
				</port>
			</input>
			<output>
				<port id="2" precision="FP32" names="Add_16:0">
					<dim>1</dim>
					<dim>576</dim>
					<dim>12</dim>
					<dim>16</dim>
				</port>
			</output>
		</layer>
		<layer id="125" name="center_net_mobile_net_v2fpn_feature_extractor/model_1/model/block_8_expand_relu/Relu6_StatefulPartitionedCall/center_net_mobile_net_v2fpn_feature_extractor/model_1/model/block_8_expand_relu/Relu6_center_net_mobile_net_v2fpn_feature_extractor/model_1/model/block_8_expand_BN/FusedBatchNormV3_StatefulPartitionedCall/center_net_mobile_net_v2fpn_feature_extractor/model_1/model/block_8_expand_BN/FusedBatchNormV3_center_net_mobile_net_v2fpn_feature_extractor/model_1/model/block_10_depthwise_BN/FusedBatchNormV3_StatefulPartitionedCall/center_net_mobile_net_v2fpn_feature_extractor/model_1/model/block_10_depthwise_BN/FusedBatchNormV3_center_net_mobile_net_v2fpn_feature_extractor/model_1/model/block_10_depthwise/depthwise_StatefulPartitionedCall/center_net_mobile_net_v2fpn_feature_extractor/model_1/model/block_10_depthwise/depthwise_center_net_mobile_net_v2fpn_feature_extractor/model_1/model/block_8_expand/Conv2D_StatefulPartitionedCall/center_net_mobile_net_v2fpn_feature_extractor/model_1/model/block_8_expand/Conv2D" type="Clamp" version="opset1">
			<data min="0" max="6"/>
			<input>
				<port id="0" precision="FP32">
					<dim>1</dim>
					<dim>576</dim>
					<dim>12</dim>
					<dim>16</dim>
				</port>
			</input>
			<output>
				<port id="1" precision="FP32" names="center_net_mobile_net_v2fpn_feature_extractor/model_1/model/block_8_expand_relu/Relu6_StatefulPartitionedCall/center_net_mobile_net_v2fpn_feature_extractor/model_1/model/block_8_expand_relu/Relu6_center_net_mobile_net_v2fpn_feature_extractor/model_1/model/block_8_expand_BN/FusedBatchNormV3_StatefulPartitionedCall/center_net_mobile_net_v2fpn_feature_extractor/model_1/model/block_8_expand_BN/FusedBatchNormV3_center_net_mobile_net_v2fpn_feature_extractor/model_1/model/block_10_depthwise_BN/FusedBatchNormV3_StatefulPartitionedCall/center_net_mobile_net_v2fpn_feature_extractor/model_1/model/block_10_depthwise_BN/FusedBatchNormV3_center_net_mobile_net_v2fpn_feature_extractor/model_1/model/block_10_depthwise/depthwise_StatefulPartitionedCall/center_net_mobile_net_v2fpn_feature_extractor/model_1/model/block_10_depthwise/depthwise_center_net_mobile_net_v2fpn_feature_extractor/model_1/model/block_8_expand/Conv2D_StatefulPartitionedCall/center_net_mobile_net_v2fpn_feature_extractor/model_1/model/block_8_expand/Conv2D:0">
					<dim>1</dim>
					<dim>576</dim>
					<dim>12</dim>
					<dim>16</dim>
				</port>
			</output>
		</layer>
		<layer id="126" name="depthwise_8/filter_in" type="Const" version="opset1">
			<data element_type="f32" shape="576, 1, 1, 3, 3" offset="1355568" size="20736"/>
			<output>
				<port id="0" precision="FP32" names="depthwise_8/filter_in:0">
					<dim>576</dim>
					<dim>1</dim>
					<dim>1</dim>
					<dim>3</dim>
					<dim>3</dim>
				</port>
			</output>
		</layer>
		<layer id="127" name="depthwise_8" type="GroupConvolution" version="opset1">
			<data strides="1, 1" pads_begin="1, 1" pads_end="1, 1" dilations="1, 1" auto_pad="same_upper"/>
			<input>
				<port id="0" precision="FP32">
					<dim>1</dim>
					<dim>576</dim>
					<dim>12</dim>
					<dim>16</dim>
				</port>
				<port id="1" precision="FP32">
					<dim>576</dim>
					<dim>1</dim>
					<dim>1</dim>
					<dim>3</dim>
					<dim>3</dim>
				</port>
			</input>
			<output>
				<port id="2" precision="FP32" names="depthwise_8:0">
					<dim>1</dim>
					<dim>576</dim>
					<dim>12</dim>
					<dim>16</dim>
				</port>
			</output>
		</layer>
		<layer id="128" name="Add_17/y" type="Const" version="opset1">
			<data element_type="f32" shape="1, 576, 1, 1" offset="1376304" size="2304"/>
			<output>
				<port id="0" precision="FP32" names="Add_17/y:0">
					<dim>1</dim>
					<dim>576</dim>
					<dim>1</dim>
					<dim>1</dim>
				</port>
			</output>
		</layer>
		<layer id="129" name="Add_17" type="Add" version="opset1">
			<data auto_broadcast="numpy"/>
			<input>
				<port id="0" precision="FP32">
					<dim>1</dim>
					<dim>576</dim>
					<dim>12</dim>
					<dim>16</dim>
				</port>
				<port id="1" precision="FP32">
					<dim>1</dim>
					<dim>576</dim>
					<dim>1</dim>
					<dim>1</dim>
				</port>
			</input>
			<output>
				<port id="2" precision="FP32" names="Add_17:0">
					<dim>1</dim>
					<dim>576</dim>
					<dim>12</dim>
					<dim>16</dim>
				</port>
			</output>
		</layer>
		<layer id="130" name="center_net_mobile_net_v2fpn_feature_extractor/model_1/model/block_8_depthwise_relu/Relu6_StatefulPartitionedCall/center_net_mobile_net_v2fpn_feature_extractor/model_1/model/block_8_depthwise_relu/Relu6_center_net_mobile_net_v2fpn_feature_extractor/model_1/model/block_8_depthwise_BN/FusedBatchNormV3_StatefulPartitionedCall/center_net_mobile_net_v2fpn_feature_extractor/model_1/model/block_8_depthwise_BN/FusedBatchNormV3_center_net_mobile_net_v2fpn_feature_extractor/model_1/model/block_10_depthwise_BN/FusedBatchNormV3_StatefulPartitionedCall/center_net_mobile_net_v2fpn_feature_extractor/model_1/model/block_10_depthwise_BN/FusedBatchNormV3_center_net_mobile_net_v2fpn_feature_extractor/model_1/model/block_10_depthwise/depthwise_StatefulPartitionedCall/center_net_mobile_net_v2fpn_feature_extractor/model_1/model/block_10_depthwise/depthwise_center_net_mobile_net_v2fpn_feature_extractor/model_1/model/block_8_depthwise/depthwise_StatefulPartitionedCall/center_net_mobile_net_v2fpn_feature_extractor/model_1/model/block_8_depthwise/depthwise" type="Clamp" version="opset1">
			<data min="0" max="6"/>
			<input>
				<port id="0" precision="FP32">
					<dim>1</dim>
					<dim>576</dim>
					<dim>12</dim>
					<dim>16</dim>
				</port>
			</input>
			<output>
				<port id="1" precision="FP32" names="center_net_mobile_net_v2fpn_feature_extractor/model_1/model/block_8_depthwise_relu/Relu6_StatefulPartitionedCall/center_net_mobile_net_v2fpn_feature_extractor/model_1/model/block_8_depthwise_relu/Relu6_center_net_mobile_net_v2fpn_feature_extractor/model_1/model/block_8_depthwise_BN/FusedBatchNormV3_StatefulPartitionedCall/center_net_mobile_net_v2fpn_feature_extractor/model_1/model/block_8_depthwise_BN/FusedBatchNormV3_center_net_mobile_net_v2fpn_feature_extractor/model_1/model/block_10_depthwise_BN/FusedBatchNormV3_StatefulPartitionedCall/center_net_mobile_net_v2fpn_feature_extractor/model_1/model/block_10_depthwise_BN/FusedBatchNormV3_center_net_mobile_net_v2fpn_feature_extractor/model_1/model/block_10_depthwise/depthwise_StatefulPartitionedCall/center_net_mobile_net_v2fpn_feature_extractor/model_1/model/block_10_depthwise/depthwise_center_net_mobile_net_v2fpn_feature_extractor/model_1/model/block_8_depthwise/depthwise_StatefulPartitionedCall/center_net_mobile_net_v2fpn_feature_extractor/model_1/model/block_8_depthwise/depthwise:0">
					<dim>1</dim>
					<dim>576</dim>
					<dim>12</dim>
					<dim>16</dim>
				</port>
			</output>
		</layer>
		<layer id="131" name="Conv2D_19/filter" type="Const" version="opset1">
			<data element_type="f32" shape="96, 576, 1, 1" offset="1378608" size="221184"/>
			<output>
				<port id="0" precision="FP32" names="Conv2D_19/filter:0">
					<dim>96</dim>
					<dim>576</dim>
					<dim>1</dim>
					<dim>1</dim>
				</port>
			</output>
		</layer>
		<layer id="132" name="Conv2D_19" type="Convolution" version="opset1">
			<data strides="1, 1" dilations="1, 1" pads_begin="0, 0" pads_end="0, 0" auto_pad="same_upper"/>
			<input>
				<port id="0" precision="FP32">
					<dim>1</dim>
					<dim>576</dim>
					<dim>12</dim>
					<dim>16</dim>
				</port>
				<port id="1" precision="FP32">
					<dim>96</dim>
					<dim>576</dim>
					<dim>1</dim>
					<dim>1</dim>
				</port>
			</input>
			<output>
				<port id="2" precision="FP32" names="Conv2D_19:0">
					<dim>1</dim>
					<dim>96</dim>
					<dim>12</dim>
					<dim>16</dim>
				</port>
			</output>
		</layer>
		<layer id="133" name="center_net_mobile_net_v2fpn_feature_extractor/model_1/model/block_8_project_BN/FusedBatchNormV3_StatefulPartitionedCall/center_net_mobile_net_v2fpn_feature_extractor/model_1/model/block_8_project_BN/FusedBatchNormV3_kpt_regress_0/separable_conv2d_7/separable_conv2d_StatefulPartitionedCall/kpt_regress_0/separable_conv2d_7/separable_conv2d_center_net_mobile_net_v2fpn_feature_extractor/model_1/model/block_8_project/Conv2D_StatefulPartitionedCall/center_net_mobile_net_v2fpn_feature_extractor/model_1/model/block_8_project/Conv2D1/y" type="Const" version="opset1">
			<data element_type="f32" shape="1, 96, 1, 1" offset="1599792" size="384"/>
			<output>
				<port id="0" precision="FP32" names="center_net_mobile_net_v2fpn_feature_extractor/model_1/model/block_8_project_BN/FusedBatchNormV3_StatefulPartitionedCall/center_net_mobile_net_v2fpn_feature_extractor/model_1/model/block_8_project_BN/FusedBatchNormV3_kpt_regress_0/separable_conv2d_7/separable_conv2d_StatefulPartitionedCall/kpt_regress_0/separable_conv2d_7/separable_conv2d_center_net_mobile_net_v2fpn_feature_extractor/model_1/model/block_8_project/Conv2D_StatefulPartitionedCall/center_net_mobile_net_v2fpn_feature_extractor/model_1/model/block_8_project/Conv2D1/y:0">
					<dim>1</dim>
					<dim>96</dim>
					<dim>1</dim>
					<dim>1</dim>
				</port>
			</output>
		</layer>
		<layer id="134" name="center_net_mobile_net_v2fpn_feature_extractor/model_1/model/block_8_project_BN/FusedBatchNormV3_StatefulPartitionedCall/center_net_mobile_net_v2fpn_feature_extractor/model_1/model/block_8_project_BN/FusedBatchNormV3_kpt_regress_0/separable_conv2d_7/separable_conv2d_StatefulPartitionedCall/kpt_regress_0/separable_conv2d_7/separable_conv2d_center_net_mobile_net_v2fpn_feature_extractor/model_1/model/block_8_project/Conv2D_StatefulPartitionedCall/center_net_mobile_net_v2fpn_feature_extractor/model_1/model/block_8_project/Conv2D1" type="Add" version="opset1">
			<data auto_broadcast="numpy"/>
			<input>
				<port id="0" precision="FP32">
					<dim>1</dim>
					<dim>96</dim>
					<dim>12</dim>
					<dim>16</dim>
				</port>
				<port id="1" precision="FP32">
					<dim>1</dim>
					<dim>96</dim>
					<dim>1</dim>
					<dim>1</dim>
				</port>
			</input>
			<output>
				<port id="2" precision="FP32" names="center_net_mobile_net_v2fpn_feature_extractor/model_1/model/block_8_project_BN/FusedBatchNormV3_StatefulPartitionedCall/center_net_mobile_net_v2fpn_feature_extractor/model_1/model/block_8_project_BN/FusedBatchNormV3_kpt_regress_0/separable_conv2d_7/separable_conv2d_StatefulPartitionedCall/kpt_regress_0/separable_conv2d_7/separable_conv2d_center_net_mobile_net_v2fpn_feature_extractor/model_1/model/block_8_project/Conv2D_StatefulPartitionedCall/center_net_mobile_net_v2fpn_feature_extractor/model_1/model/block_8_project/Conv2D1:0">
					<dim>1</dim>
					<dim>96</dim>
					<dim>12</dim>
					<dim>16</dim>
				</port>
			</output>
		</layer>
		<layer id="135" name="center_net_mobile_net_v2fpn_feature_extractor/model_1/model/block_8_add/add_StatefulPartitionedCall/center_net_mobile_net_v2fpn_feature_extractor/model_1/model/block_8_add/add" type="Add" version="opset1">
			<data auto_broadcast="numpy"/>
			<input>
				<port id="0" precision="FP32">
					<dim>1</dim>
					<dim>96</dim>
					<dim>12</dim>
					<dim>16</dim>
				</port>
				<port id="1" precision="FP32">
					<dim>1</dim>
					<dim>96</dim>
					<dim>12</dim>
					<dim>16</dim>
				</port>
			</input>
			<output>
				<port id="2" precision="FP32" names="center_net_mobile_net_v2fpn_feature_extractor/model_1/model/block_8_add/add_StatefulPartitionedCall/center_net_mobile_net_v2fpn_feature_extractor/model_1/model/block_8_add/add:0">
					<dim>1</dim>
					<dim>96</dim>
					<dim>12</dim>
					<dim>16</dim>
				</port>
			</output>
		</layer>
		<layer id="136" name="Conv2D_20/filter" type="Const" version="opset1">
			<data element_type="f32" shape="576, 96, 1, 1" offset="1600176" size="221184"/>
			<output>
				<port id="0" precision="FP32" names="Conv2D_20/filter:0">
					<dim>576</dim>
					<dim>96</dim>
					<dim>1</dim>
					<dim>1</dim>
				</port>
			</output>
		</layer>
		<layer id="137" name="Conv2D_20" type="Convolution" version="opset1">
			<data strides="1, 1" dilations="1, 1" pads_begin="0, 0" pads_end="0, 0" auto_pad="same_upper"/>
			<input>
				<port id="0" precision="FP32">
					<dim>1</dim>
					<dim>96</dim>
					<dim>12</dim>
					<dim>16</dim>
				</port>
				<port id="1" precision="FP32">
					<dim>576</dim>
					<dim>96</dim>
					<dim>1</dim>
					<dim>1</dim>
				</port>
			</input>
			<output>
				<port id="2" precision="FP32" names="Conv2D_20:0">
					<dim>1</dim>
					<dim>576</dim>
					<dim>12</dim>
					<dim>16</dim>
				</port>
			</output>
		</layer>
		<layer id="138" name="Add_18/y" type="Const" version="opset1">
			<data element_type="f32" shape="1, 576, 1, 1" offset="1821360" size="2304"/>
			<output>
				<port id="0" precision="FP32" names="Add_18/y:0">
					<dim>1</dim>
					<dim>576</dim>
					<dim>1</dim>
					<dim>1</dim>
				</port>
			</output>
		</layer>
		<layer id="139" name="Add_18" type="Add" version="opset1">
			<data auto_broadcast="numpy"/>
			<input>
				<port id="0" precision="FP32">
					<dim>1</dim>
					<dim>576</dim>
					<dim>12</dim>
					<dim>16</dim>
				</port>
				<port id="1" precision="FP32">
					<dim>1</dim>
					<dim>576</dim>
					<dim>1</dim>
					<dim>1</dim>
				</port>
			</input>
			<output>
				<port id="2" precision="FP32" names="Add_18:0">
					<dim>1</dim>
					<dim>576</dim>
					<dim>12</dim>
					<dim>16</dim>
				</port>
			</output>
		</layer>
		<layer id="140" name="center_net_mobile_net_v2fpn_feature_extractor/model_1/model/block_9_expand_relu/Relu6_StatefulPartitionedCall/center_net_mobile_net_v2fpn_feature_extractor/model_1/model/block_9_expand_relu/Relu6_center_net_mobile_net_v2fpn_feature_extractor/model_1/model/block_9_expand_BN/FusedBatchNormV3_StatefulPartitionedCall/center_net_mobile_net_v2fpn_feature_extractor/model_1/model/block_9_expand_BN/FusedBatchNormV3_center_net_mobile_net_v2fpn_feature_extractor/model_1/model/block_10_depthwise_BN/FusedBatchNormV3_StatefulPartitionedCall/center_net_mobile_net_v2fpn_feature_extractor/model_1/model/block_10_depthwise_BN/FusedBatchNormV3_center_net_mobile_net_v2fpn_feature_extractor/model_1/model/block_10_depthwise/depthwise_StatefulPartitionedCall/center_net_mobile_net_v2fpn_feature_extractor/model_1/model/block_10_depthwise/depthwise_center_net_mobile_net_v2fpn_feature_extractor/model_1/model/block_9_expand/Conv2D_StatefulPartitionedCall/center_net_mobile_net_v2fpn_feature_extractor/model_1/model/block_9_expand/Conv2D" type="Clamp" version="opset1">
			<data min="0" max="6"/>
			<input>
				<port id="0" precision="FP32">
					<dim>1</dim>
					<dim>576</dim>
					<dim>12</dim>
					<dim>16</dim>
				</port>
			</input>
			<output>
				<port id="1" precision="FP32" names="center_net_mobile_net_v2fpn_feature_extractor/model_1/model/block_9_expand_relu/Relu6_StatefulPartitionedCall/center_net_mobile_net_v2fpn_feature_extractor/model_1/model/block_9_expand_relu/Relu6_center_net_mobile_net_v2fpn_feature_extractor/model_1/model/block_9_expand_BN/FusedBatchNormV3_StatefulPartitionedCall/center_net_mobile_net_v2fpn_feature_extractor/model_1/model/block_9_expand_BN/FusedBatchNormV3_center_net_mobile_net_v2fpn_feature_extractor/model_1/model/block_10_depthwise_BN/FusedBatchNormV3_StatefulPartitionedCall/center_net_mobile_net_v2fpn_feature_extractor/model_1/model/block_10_depthwise_BN/FusedBatchNormV3_center_net_mobile_net_v2fpn_feature_extractor/model_1/model/block_10_depthwise/depthwise_StatefulPartitionedCall/center_net_mobile_net_v2fpn_feature_extractor/model_1/model/block_10_depthwise/depthwise_center_net_mobile_net_v2fpn_feature_extractor/model_1/model/block_9_expand/Conv2D_StatefulPartitionedCall/center_net_mobile_net_v2fpn_feature_extractor/model_1/model/block_9_expand/Conv2D:0">
					<dim>1</dim>
					<dim>576</dim>
					<dim>12</dim>
					<dim>16</dim>
				</port>
			</output>
		</layer>
		<layer id="141" name="depthwise_9/filter_in" type="Const" version="opset1">
			<data element_type="f32" shape="576, 1, 1, 3, 3" offset="1823664" size="20736"/>
			<output>
				<port id="0" precision="FP32" names="depthwise_9/filter_in:0">
					<dim>576</dim>
					<dim>1</dim>
					<dim>1</dim>
					<dim>3</dim>
					<dim>3</dim>
				</port>
			</output>
		</layer>
		<layer id="142" name="depthwise_9" type="GroupConvolution" version="opset1">
			<data strides="1, 1" pads_begin="1, 1" pads_end="1, 1" dilations="1, 1" auto_pad="same_upper"/>
			<input>
				<port id="0" precision="FP32">
					<dim>1</dim>
					<dim>576</dim>
					<dim>12</dim>
					<dim>16</dim>
				</port>
				<port id="1" precision="FP32">
					<dim>576</dim>
					<dim>1</dim>
					<dim>1</dim>
					<dim>3</dim>
					<dim>3</dim>
				</port>
			</input>
			<output>
				<port id="2" precision="FP32" names="depthwise_9:0">
					<dim>1</dim>
					<dim>576</dim>
					<dim>12</dim>
					<dim>16</dim>
				</port>
			</output>
		</layer>
		<layer id="143" name="Add_19/y" type="Const" version="opset1">
			<data element_type="f32" shape="1, 576, 1, 1" offset="1844400" size="2304"/>
			<output>
				<port id="0" precision="FP32" names="Add_19/y:0">
					<dim>1</dim>
					<dim>576</dim>
					<dim>1</dim>
					<dim>1</dim>
				</port>
			</output>
		</layer>
		<layer id="144" name="Add_19" type="Add" version="opset1">
			<data auto_broadcast="numpy"/>
			<input>
				<port id="0" precision="FP32">
					<dim>1</dim>
					<dim>576</dim>
					<dim>12</dim>
					<dim>16</dim>
				</port>
				<port id="1" precision="FP32">
					<dim>1</dim>
					<dim>576</dim>
					<dim>1</dim>
					<dim>1</dim>
				</port>
			</input>
			<output>
				<port id="2" precision="FP32" names="Add_19:0">
					<dim>1</dim>
					<dim>576</dim>
					<dim>12</dim>
					<dim>16</dim>
				</port>
			</output>
		</layer>
		<layer id="145" name="center_net_mobile_net_v2fpn_feature_extractor/model_1/model/block_9_depthwise_relu/Relu6_StatefulPartitionedCall/center_net_mobile_net_v2fpn_feature_extractor/model_1/model/block_9_depthwise_relu/Relu6_center_net_mobile_net_v2fpn_feature_extractor/model_1/model/block_9_depthwise_BN/FusedBatchNormV3_StatefulPartitionedCall/center_net_mobile_net_v2fpn_feature_extractor/model_1/model/block_9_depthwise_BN/FusedBatchNormV3_center_net_mobile_net_v2fpn_feature_extractor/model_1/model/block_10_depthwise_BN/FusedBatchNormV3_StatefulPartitionedCall/center_net_mobile_net_v2fpn_feature_extractor/model_1/model/block_10_depthwise_BN/FusedBatchNormV3_center_net_mobile_net_v2fpn_feature_extractor/model_1/model/block_10_depthwise/depthwise_StatefulPartitionedCall/center_net_mobile_net_v2fpn_feature_extractor/model_1/model/block_10_depthwise/depthwise_center_net_mobile_net_v2fpn_feature_extractor/model_1/model/block_9_depthwise/depthwise_StatefulPartitionedCall/center_net_mobile_net_v2fpn_feature_extractor/model_1/model/block_9_depthwise/depthwise" type="Clamp" version="opset1">
			<data min="0" max="6"/>
			<input>
				<port id="0" precision="FP32">
					<dim>1</dim>
					<dim>576</dim>
					<dim>12</dim>
					<dim>16</dim>
				</port>
			</input>
			<output>
				<port id="1" precision="FP32" names="center_net_mobile_net_v2fpn_feature_extractor/model_1/model/block_9_depthwise_relu/Relu6_StatefulPartitionedCall/center_net_mobile_net_v2fpn_feature_extractor/model_1/model/block_9_depthwise_relu/Relu6_center_net_mobile_net_v2fpn_feature_extractor/model_1/model/block_9_depthwise_BN/FusedBatchNormV3_StatefulPartitionedCall/center_net_mobile_net_v2fpn_feature_extractor/model_1/model/block_9_depthwise_BN/FusedBatchNormV3_center_net_mobile_net_v2fpn_feature_extractor/model_1/model/block_10_depthwise_BN/FusedBatchNormV3_StatefulPartitionedCall/center_net_mobile_net_v2fpn_feature_extractor/model_1/model/block_10_depthwise_BN/FusedBatchNormV3_center_net_mobile_net_v2fpn_feature_extractor/model_1/model/block_10_depthwise/depthwise_StatefulPartitionedCall/center_net_mobile_net_v2fpn_feature_extractor/model_1/model/block_10_depthwise/depthwise_center_net_mobile_net_v2fpn_feature_extractor/model_1/model/block_9_depthwise/depthwise_StatefulPartitionedCall/center_net_mobile_net_v2fpn_feature_extractor/model_1/model/block_9_depthwise/depthwise:0">
					<dim>1</dim>
					<dim>576</dim>
					<dim>12</dim>
					<dim>16</dim>
				</port>
			</output>
		</layer>
		<layer id="146" name="Conv2D_21/filter" type="Const" version="opset1">
			<data element_type="f32" shape="96, 576, 1, 1" offset="1846704" size="221184"/>
			<output>
				<port id="0" precision="FP32" names="Conv2D_21/filter:0">
					<dim>96</dim>
					<dim>576</dim>
					<dim>1</dim>
					<dim>1</dim>
				</port>
			</output>
		</layer>
		<layer id="147" name="Conv2D_21" type="Convolution" version="opset1">
			<data strides="1, 1" dilations="1, 1" pads_begin="0, 0" pads_end="0, 0" auto_pad="same_upper"/>
			<input>
				<port id="0" precision="FP32">
					<dim>1</dim>
					<dim>576</dim>
					<dim>12</dim>
					<dim>16</dim>
				</port>
				<port id="1" precision="FP32">
					<dim>96</dim>
					<dim>576</dim>
					<dim>1</dim>
					<dim>1</dim>
				</port>
			</input>
			<output>
				<port id="2" precision="FP32" names="Conv2D_21:0">
					<dim>1</dim>
					<dim>96</dim>
					<dim>12</dim>
					<dim>16</dim>
				</port>
			</output>
		</layer>
		<layer id="148" name="center_net_mobile_net_v2fpn_feature_extractor/model_1/model/block_9_project_BN/FusedBatchNormV3_StatefulPartitionedCall/center_net_mobile_net_v2fpn_feature_extractor/model_1/model/block_9_project_BN/FusedBatchNormV3_kpt_regress_0/separable_conv2d_7/separable_conv2d_StatefulPartitionedCall/kpt_regress_0/separable_conv2d_7/separable_conv2d_center_net_mobile_net_v2fpn_feature_extractor/model_1/model/block_9_project/Conv2D_StatefulPartitionedCall/center_net_mobile_net_v2fpn_feature_extractor/model_1/model/block_9_project/Conv2D1/y" type="Const" version="opset1">
			<data element_type="f32" shape="1, 96, 1, 1" offset="2067888" size="384"/>
			<output>
				<port id="0" precision="FP32" names="center_net_mobile_net_v2fpn_feature_extractor/model_1/model/block_9_project_BN/FusedBatchNormV3_StatefulPartitionedCall/center_net_mobile_net_v2fpn_feature_extractor/model_1/model/block_9_project_BN/FusedBatchNormV3_kpt_regress_0/separable_conv2d_7/separable_conv2d_StatefulPartitionedCall/kpt_regress_0/separable_conv2d_7/separable_conv2d_center_net_mobile_net_v2fpn_feature_extractor/model_1/model/block_9_project/Conv2D_StatefulPartitionedCall/center_net_mobile_net_v2fpn_feature_extractor/model_1/model/block_9_project/Conv2D1/y:0">
					<dim>1</dim>
					<dim>96</dim>
					<dim>1</dim>
					<dim>1</dim>
				</port>
			</output>
		</layer>
		<layer id="149" name="center_net_mobile_net_v2fpn_feature_extractor/model_1/model/block_9_project_BN/FusedBatchNormV3_StatefulPartitionedCall/center_net_mobile_net_v2fpn_feature_extractor/model_1/model/block_9_project_BN/FusedBatchNormV3_kpt_regress_0/separable_conv2d_7/separable_conv2d_StatefulPartitionedCall/kpt_regress_0/separable_conv2d_7/separable_conv2d_center_net_mobile_net_v2fpn_feature_extractor/model_1/model/block_9_project/Conv2D_StatefulPartitionedCall/center_net_mobile_net_v2fpn_feature_extractor/model_1/model/block_9_project/Conv2D1" type="Add" version="opset1">
			<data auto_broadcast="numpy"/>
			<input>
				<port id="0" precision="FP32">
					<dim>1</dim>
					<dim>96</dim>
					<dim>12</dim>
					<dim>16</dim>
				</port>
				<port id="1" precision="FP32">
					<dim>1</dim>
					<dim>96</dim>
					<dim>1</dim>
					<dim>1</dim>
				</port>
			</input>
			<output>
				<port id="2" precision="FP32" names="center_net_mobile_net_v2fpn_feature_extractor/model_1/model/block_9_project_BN/FusedBatchNormV3_StatefulPartitionedCall/center_net_mobile_net_v2fpn_feature_extractor/model_1/model/block_9_project_BN/FusedBatchNormV3_kpt_regress_0/separable_conv2d_7/separable_conv2d_StatefulPartitionedCall/kpt_regress_0/separable_conv2d_7/separable_conv2d_center_net_mobile_net_v2fpn_feature_extractor/model_1/model/block_9_project/Conv2D_StatefulPartitionedCall/center_net_mobile_net_v2fpn_feature_extractor/model_1/model/block_9_project/Conv2D1:0">
					<dim>1</dim>
					<dim>96</dim>
					<dim>12</dim>
					<dim>16</dim>
				</port>
			</output>
		</layer>
		<layer id="150" name="center_net_mobile_net_v2fpn_feature_extractor/model_1/model/block_9_add/add_StatefulPartitionedCall/center_net_mobile_net_v2fpn_feature_extractor/model_1/model/block_9_add/add" type="Add" version="opset1">
			<data auto_broadcast="numpy"/>
			<input>
				<port id="0" precision="FP32">
					<dim>1</dim>
					<dim>96</dim>
					<dim>12</dim>
					<dim>16</dim>
				</port>
				<port id="1" precision="FP32">
					<dim>1</dim>
					<dim>96</dim>
					<dim>12</dim>
					<dim>16</dim>
				</port>
			</input>
			<output>
				<port id="2" precision="FP32" names="center_net_mobile_net_v2fpn_feature_extractor/model_1/model/block_9_add/add_StatefulPartitionedCall/center_net_mobile_net_v2fpn_feature_extractor/model_1/model/block_9_add/add:0">
					<dim>1</dim>
					<dim>96</dim>
					<dim>12</dim>
					<dim>16</dim>
				</port>
			</output>
		</layer>
		<layer id="151" name="Conv2D_23/filter" type="Const" version="opset1">
			<data element_type="f32" shape="576, 96, 1, 1" offset="2068272" size="221184"/>
			<output>
				<port id="0" precision="FP32" names="Conv2D_23/filter:0">
					<dim>576</dim>
					<dim>96</dim>
					<dim>1</dim>
					<dim>1</dim>
				</port>
			</output>
		</layer>
		<layer id="152" name="Conv2D_23" type="Convolution" version="opset1">
			<data strides="1, 1" dilations="1, 1" pads_begin="0, 0" pads_end="0, 0" auto_pad="same_upper"/>
			<input>
				<port id="0" precision="FP32">
					<dim>1</dim>
					<dim>96</dim>
					<dim>12</dim>
					<dim>16</dim>
				</port>
				<port id="1" precision="FP32">
					<dim>576</dim>
					<dim>96</dim>
					<dim>1</dim>
					<dim>1</dim>
				</port>
			</input>
			<output>
				<port id="2" precision="FP32" names="Conv2D_23:0">
					<dim>1</dim>
					<dim>576</dim>
					<dim>12</dim>
					<dim>16</dim>
				</port>
			</output>
		</layer>
		<layer id="153" name="Add_20/y" type="Const" version="opset1">
			<data element_type="f32" shape="1, 576, 1, 1" offset="2289456" size="2304"/>
			<output>
				<port id="0" precision="FP32" names="Add_20/y:0">
					<dim>1</dim>
					<dim>576</dim>
					<dim>1</dim>
					<dim>1</dim>
				</port>
			</output>
		</layer>
		<layer id="154" name="Add_20" type="Add" version="opset1">
			<data auto_broadcast="numpy"/>
			<input>
				<port id="0" precision="FP32">
					<dim>1</dim>
					<dim>576</dim>
					<dim>12</dim>
					<dim>16</dim>
				</port>
				<port id="1" precision="FP32">
					<dim>1</dim>
					<dim>576</dim>
					<dim>1</dim>
					<dim>1</dim>
				</port>
			</input>
			<output>
				<port id="2" precision="FP32" names="Add_20:0">
					<dim>1</dim>
					<dim>576</dim>
					<dim>12</dim>
					<dim>16</dim>
				</port>
			</output>
		</layer>
		<layer id="155" name="center_net_mobile_net_v2fpn_feature_extractor/model_1/model/block_10_expand_relu/Relu6_StatefulPartitionedCall/center_net_mobile_net_v2fpn_feature_extractor/model_1/model/block_10_expand_relu/Relu6_center_net_mobile_net_v2fpn_feature_extractor/model_1/model/block_10_expand_BN/FusedBatchNormV3_StatefulPartitionedCall/center_net_mobile_net_v2fpn_feature_extractor/model_1/model/block_10_expand_BN/FusedBatchNormV3_center_net_mobile_net_v2fpn_feature_extractor/model_1/model/block_10_depthwise_BN/FusedBatchNormV3_StatefulPartitionedCall/center_net_mobile_net_v2fpn_feature_extractor/model_1/model/block_10_depthwise_BN/FusedBatchNormV3_center_net_mobile_net_v2fpn_feature_extractor/model_1/model/block_10_depthwise/depthwise_StatefulPartitionedCall/center_net_mobile_net_v2fpn_feature_extractor/model_1/model/block_10_depthwise/depthwise_center_net_mobile_net_v2fpn_feature_extractor/model_1/model/block_10_expand/Conv2D_StatefulPartitionedCall/center_net_mobile_net_v2fpn_feature_extractor/model_1/model/block_10_expand/Conv2D" type="Clamp" version="opset1">
			<data min="0" max="6"/>
			<input>
				<port id="0" precision="FP32">
					<dim>1</dim>
					<dim>576</dim>
					<dim>12</dim>
					<dim>16</dim>
				</port>
			</input>
			<output>
				<port id="1" precision="FP32" names="center_net_mobile_net_v2fpn_feature_extractor/model_1/model/block_10_expand_relu/Relu6_StatefulPartitionedCall/center_net_mobile_net_v2fpn_feature_extractor/model_1/model/block_10_expand_relu/Relu6_center_net_mobile_net_v2fpn_feature_extractor/model_1/model/block_10_expand_BN/FusedBatchNormV3_StatefulPartitionedCall/center_net_mobile_net_v2fpn_feature_extractor/model_1/model/block_10_expand_BN/FusedBatchNormV3_center_net_mobile_net_v2fpn_feature_extractor/model_1/model/block_10_depthwise_BN/FusedBatchNormV3_StatefulPartitionedCall/center_net_mobile_net_v2fpn_feature_extractor/model_1/model/block_10_depthwise_BN/FusedBatchNormV3_center_net_mobile_net_v2fpn_feature_extractor/model_1/model/block_10_depthwise/depthwise_StatefulPartitionedCall/center_net_mobile_net_v2fpn_feature_extractor/model_1/model/block_10_depthwise/depthwise_center_net_mobile_net_v2fpn_feature_extractor/model_1/model/block_10_expand/Conv2D_StatefulPartitionedCall/center_net_mobile_net_v2fpn_feature_extractor/model_1/model/block_10_expand/Conv2D:0">
					<dim>1</dim>
					<dim>576</dim>
					<dim>12</dim>
					<dim>16</dim>
				</port>
			</output>
		</layer>
		<layer id="156" name="depthwise_10/filter_in" type="Const" version="opset1">
			<data element_type="f32" shape="576, 1, 1, 3, 3" offset="2291760" size="20736"/>
			<output>
				<port id="0" precision="FP32" names="depthwise_10/filter_in:0">
					<dim>576</dim>
					<dim>1</dim>
					<dim>1</dim>
					<dim>3</dim>
					<dim>3</dim>
				</port>
			</output>
		</layer>
		<layer id="157" name="depthwise_10" type="GroupConvolution" version="opset1">
			<data strides="1, 1" pads_begin="1, 1" pads_end="1, 1" dilations="1, 1" auto_pad="same_upper"/>
			<input>
				<port id="0" precision="FP32">
					<dim>1</dim>
					<dim>576</dim>
					<dim>12</dim>
					<dim>16</dim>
				</port>
				<port id="1" precision="FP32">
					<dim>576</dim>
					<dim>1</dim>
					<dim>1</dim>
					<dim>3</dim>
					<dim>3</dim>
				</port>
			</input>
			<output>
				<port id="2" precision="FP32" names="depthwise_10:0">
					<dim>1</dim>
					<dim>576</dim>
					<dim>12</dim>
					<dim>16</dim>
				</port>
			</output>
		</layer>
		<layer id="158" name="Add_21/y" type="Const" version="opset1">
			<data element_type="f32" shape="1, 576, 1, 1" offset="2312496" size="2304"/>
			<output>
				<port id="0" precision="FP32" names="Add_21/y:0">
					<dim>1</dim>
					<dim>576</dim>
					<dim>1</dim>
					<dim>1</dim>
				</port>
			</output>
		</layer>
		<layer id="159" name="Add_21" type="Add" version="opset1">
			<data auto_broadcast="numpy"/>
			<input>
				<port id="0" precision="FP32">
					<dim>1</dim>
					<dim>576</dim>
					<dim>12</dim>
					<dim>16</dim>
				</port>
				<port id="1" precision="FP32">
					<dim>1</dim>
					<dim>576</dim>
					<dim>1</dim>
					<dim>1</dim>
				</port>
			</input>
			<output>
				<port id="2" precision="FP32" names="Add_21:0">
					<dim>1</dim>
					<dim>576</dim>
					<dim>12</dim>
					<dim>16</dim>
				</port>
			</output>
		</layer>
		<layer id="160" name="center_net_mobile_net_v2fpn_feature_extractor/model_1/model/block_10_depthwise_relu/Relu6_StatefulPartitionedCall/center_net_mobile_net_v2fpn_feature_extractor/model_1/model/block_10_depthwise_relu/Relu6_center_net_mobile_net_v2fpn_feature_extractor/model_1/model/block_10_depthwise_BN/FusedBatchNormV3_StatefulPartitionedCall/center_net_mobile_net_v2fpn_feature_extractor/model_1/model/block_10_depthwise_BN/FusedBatchNormV3_center_net_mobile_net_v2fpn_feature_extractor/model_1/model/block_10_depthwise/depthwise_StatefulPartitionedCall/center_net_mobile_net_v2fpn_feature_extractor/model_1/model/block_10_depthwise/depthwise" type="Clamp" version="opset1">
			<data min="0" max="6"/>
			<input>
				<port id="0" precision="FP32">
					<dim>1</dim>
					<dim>576</dim>
					<dim>12</dim>
					<dim>16</dim>
				</port>
			</input>
			<output>
				<port id="1" precision="FP32" names="center_net_mobile_net_v2fpn_feature_extractor/model_1/model/block_10_depthwise_relu/Relu6_StatefulPartitionedCall/center_net_mobile_net_v2fpn_feature_extractor/model_1/model/block_10_depthwise_relu/Relu6_center_net_mobile_net_v2fpn_feature_extractor/model_1/model/block_10_depthwise_BN/FusedBatchNormV3_StatefulPartitionedCall/center_net_mobile_net_v2fpn_feature_extractor/model_1/model/block_10_depthwise_BN/FusedBatchNormV3_center_net_mobile_net_v2fpn_feature_extractor/model_1/model/block_10_depthwise/depthwise_StatefulPartitionedCall/center_net_mobile_net_v2fpn_feature_extractor/model_1/model/block_10_depthwise/depthwise:0">
					<dim>1</dim>
					<dim>576</dim>
					<dim>12</dim>
					<dim>16</dim>
				</port>
			</output>
		</layer>
		<layer id="161" name="Conv2D_24/filter" type="Const" version="opset1">
			<data element_type="f32" shape="144, 576, 1, 1" offset="2314800" size="331776"/>
			<output>
				<port id="0" precision="FP32" names="Conv2D_24/filter:0">
					<dim>144</dim>
					<dim>576</dim>
					<dim>1</dim>
					<dim>1</dim>
				</port>
			</output>
		</layer>
		<layer id="162" name="Conv2D_24" type="Convolution" version="opset1">
			<data strides="1, 1" dilations="1, 1" pads_begin="0, 0" pads_end="0, 0" auto_pad="same_upper"/>
			<input>
				<port id="0" precision="FP32">
					<dim>1</dim>
					<dim>576</dim>
					<dim>12</dim>
					<dim>16</dim>
				</port>
				<port id="1" precision="FP32">
					<dim>144</dim>
					<dim>576</dim>
					<dim>1</dim>
					<dim>1</dim>
				</port>
			</input>
			<output>
				<port id="2" precision="FP32" names="Conv2D_24:0">
					<dim>1</dim>
					<dim>144</dim>
					<dim>12</dim>
					<dim>16</dim>
				</port>
			</output>
		</layer>
		<layer id="163" name="center_net_mobile_net_v2fpn_feature_extractor/model_1/model/block_10_project_BN/FusedBatchNormV3_StatefulPartitionedCall/center_net_mobile_net_v2fpn_feature_extractor/model_1/model/block_10_project_BN/FusedBatchNormV3_center_net_mobile_net_v2fpn_feature_extractor/model_1/model/block_12_project/Conv2D_StatefulPartitionedCall/center_net_mobile_net_v2fpn_feature_extractor/model_1/model/block_12_project/Conv2D_center_net_mobile_net_v2fpn_feature_extractor/model_1/model/block_10_project/Conv2D_StatefulPartitionedCall/center_net_mobile_net_v2fpn_feature_extractor/model_1/model/block_10_project/Conv2D1/y" type="Const" version="opset1">
			<data element_type="f32" shape="1, 144, 1, 1" offset="2646576" size="576"/>
			<output>
				<port id="0" precision="FP32" names="center_net_mobile_net_v2fpn_feature_extractor/model_1/model/block_10_project_BN/FusedBatchNormV3_StatefulPartitionedCall/center_net_mobile_net_v2fpn_feature_extractor/model_1/model/block_10_project_BN/FusedBatchNormV3_center_net_mobile_net_v2fpn_feature_extractor/model_1/model/block_12_project/Conv2D_StatefulPartitionedCall/center_net_mobile_net_v2fpn_feature_extractor/model_1/model/block_12_project/Conv2D_center_net_mobile_net_v2fpn_feature_extractor/model_1/model/block_10_project/Conv2D_StatefulPartitionedCall/center_net_mobile_net_v2fpn_feature_extractor/model_1/model/block_10_project/Conv2D1/y:0">
					<dim>1</dim>
					<dim>144</dim>
					<dim>1</dim>
					<dim>1</dim>
				</port>
			</output>
		</layer>
		<layer id="164" name="center_net_mobile_net_v2fpn_feature_extractor/model_1/model/block_10_project_BN/FusedBatchNormV3_StatefulPartitionedCall/center_net_mobile_net_v2fpn_feature_extractor/model_1/model/block_10_project_BN/FusedBatchNormV3_center_net_mobile_net_v2fpn_feature_extractor/model_1/model/block_12_project/Conv2D_StatefulPartitionedCall/center_net_mobile_net_v2fpn_feature_extractor/model_1/model/block_12_project/Conv2D_center_net_mobile_net_v2fpn_feature_extractor/model_1/model/block_10_project/Conv2D_StatefulPartitionedCall/center_net_mobile_net_v2fpn_feature_extractor/model_1/model/block_10_project/Conv2D1" type="Add" version="opset1">
			<data auto_broadcast="numpy"/>
			<input>
				<port id="0" precision="FP32">
					<dim>1</dim>
					<dim>144</dim>
					<dim>12</dim>
					<dim>16</dim>
				</port>
				<port id="1" precision="FP32">
					<dim>1</dim>
					<dim>144</dim>
					<dim>1</dim>
					<dim>1</dim>
				</port>
			</input>
			<output>
				<port id="2" precision="FP32" names="center_net_mobile_net_v2fpn_feature_extractor/model_1/model/block_10_project_BN/FusedBatchNormV3_StatefulPartitionedCall/center_net_mobile_net_v2fpn_feature_extractor/model_1/model/block_10_project_BN/FusedBatchNormV3_center_net_mobile_net_v2fpn_feature_extractor/model_1/model/block_12_project/Conv2D_StatefulPartitionedCall/center_net_mobile_net_v2fpn_feature_extractor/model_1/model/block_12_project/Conv2D_center_net_mobile_net_v2fpn_feature_extractor/model_1/model/block_10_project/Conv2D_StatefulPartitionedCall/center_net_mobile_net_v2fpn_feature_extractor/model_1/model/block_10_project/Conv2D1:0">
					<dim>1</dim>
					<dim>144</dim>
					<dim>12</dim>
					<dim>16</dim>
				</port>
			</output>
		</layer>
		<layer id="165" name="Conv2D_25/filter" type="Const" version="opset1">
			<data element_type="f32" shape="864, 144, 1, 1" offset="2647152" size="497664"/>
			<output>
				<port id="0" precision="FP32" names="Conv2D_25/filter:0">
					<dim>864</dim>
					<dim>144</dim>
					<dim>1</dim>
					<dim>1</dim>
				</port>
			</output>
		</layer>
		<layer id="166" name="Conv2D_25" type="Convolution" version="opset1">
			<data strides="1, 1" dilations="1, 1" pads_begin="0, 0" pads_end="0, 0" auto_pad="same_upper"/>
			<input>
				<port id="0" precision="FP32">
					<dim>1</dim>
					<dim>144</dim>
					<dim>12</dim>
					<dim>16</dim>
				</port>
				<port id="1" precision="FP32">
					<dim>864</dim>
					<dim>144</dim>
					<dim>1</dim>
					<dim>1</dim>
				</port>
			</input>
			<output>
				<port id="2" precision="FP32" names="Conv2D_25:0">
					<dim>1</dim>
					<dim>864</dim>
					<dim>12</dim>
					<dim>16</dim>
				</port>
			</output>
		</layer>
		<layer id="167" name="Add_22/y" type="Const" version="opset1">
			<data element_type="f32" shape="1, 864, 1, 1" offset="3144816" size="3456"/>
			<output>
				<port id="0" precision="FP32" names="Add_22/y:0">
					<dim>1</dim>
					<dim>864</dim>
					<dim>1</dim>
					<dim>1</dim>
				</port>
			</output>
		</layer>
		<layer id="168" name="Add_22" type="Add" version="opset1">
			<data auto_broadcast="numpy"/>
			<input>
				<port id="0" precision="FP32">
					<dim>1</dim>
					<dim>864</dim>
					<dim>12</dim>
					<dim>16</dim>
				</port>
				<port id="1" precision="FP32">
					<dim>1</dim>
					<dim>864</dim>
					<dim>1</dim>
					<dim>1</dim>
				</port>
			</input>
			<output>
				<port id="2" precision="FP32" names="Add_22:0">
					<dim>1</dim>
					<dim>864</dim>
					<dim>12</dim>
					<dim>16</dim>
				</port>
			</output>
		</layer>
		<layer id="169" name="center_net_mobile_net_v2fpn_feature_extractor/model_1/model/block_11_expand_relu/Relu6_StatefulPartitionedCall/center_net_mobile_net_v2fpn_feature_extractor/model_1/model/block_11_expand_relu/Relu6_center_net_mobile_net_v2fpn_feature_extractor/model_1/model/block_11_expand_BN/FusedBatchNormV3_StatefulPartitionedCall/center_net_mobile_net_v2fpn_feature_extractor/model_1/model/block_11_expand_BN/FusedBatchNormV3_center_net_mobile_net_v2fpn_feature_extractor/model_1/model/block_13_depthwise_BN/FusedBatchNormV3_StatefulPartitionedCall/center_net_mobile_net_v2fpn_feature_extractor/model_1/model/block_13_depthwise_BN/FusedBatchNormV3_center_net_mobile_net_v2fpn_feature_extractor/model_1/model/block_13_depthwise/depthwise_StatefulPartitionedCall/center_net_mobile_net_v2fpn_feature_extractor/model_1/model/block_13_depthwise/depthwise_center_net_mobile_net_v2fpn_feature_extractor/model_1/model/block_11_expand/Conv2D_StatefulPartitionedCall/center_net_mobile_net_v2fpn_feature_extractor/model_1/model/block_11_expand/Conv2D" type="Clamp" version="opset1">
			<data min="0" max="6"/>
			<input>
				<port id="0" precision="FP32">
					<dim>1</dim>
					<dim>864</dim>
					<dim>12</dim>
					<dim>16</dim>
				</port>
			</input>
			<output>
				<port id="1" precision="FP32" names="center_net_mobile_net_v2fpn_feature_extractor/model_1/model/block_11_expand_relu/Relu6_StatefulPartitionedCall/center_net_mobile_net_v2fpn_feature_extractor/model_1/model/block_11_expand_relu/Relu6_center_net_mobile_net_v2fpn_feature_extractor/model_1/model/block_11_expand_BN/FusedBatchNormV3_StatefulPartitionedCall/center_net_mobile_net_v2fpn_feature_extractor/model_1/model/block_11_expand_BN/FusedBatchNormV3_center_net_mobile_net_v2fpn_feature_extractor/model_1/model/block_13_depthwise_BN/FusedBatchNormV3_StatefulPartitionedCall/center_net_mobile_net_v2fpn_feature_extractor/model_1/model/block_13_depthwise_BN/FusedBatchNormV3_center_net_mobile_net_v2fpn_feature_extractor/model_1/model/block_13_depthwise/depthwise_StatefulPartitionedCall/center_net_mobile_net_v2fpn_feature_extractor/model_1/model/block_13_depthwise/depthwise_center_net_mobile_net_v2fpn_feature_extractor/model_1/model/block_11_expand/Conv2D_StatefulPartitionedCall/center_net_mobile_net_v2fpn_feature_extractor/model_1/model/block_11_expand/Conv2D:0">
					<dim>1</dim>
					<dim>864</dim>
					<dim>12</dim>
					<dim>16</dim>
				</port>
			</output>
		</layer>
		<layer id="170" name="depthwise_11/filter_in" type="Const" version="opset1">
			<data element_type="f32" shape="864, 1, 1, 3, 3" offset="3148272" size="31104"/>
			<output>
				<port id="0" precision="FP32" names="depthwise_11/filter_in:0">
					<dim>864</dim>
					<dim>1</dim>
					<dim>1</dim>
					<dim>3</dim>
					<dim>3</dim>
				</port>
			</output>
		</layer>
		<layer id="171" name="depthwise_11" type="GroupConvolution" version="opset1">
			<data strides="1, 1" pads_begin="1, 1" pads_end="1, 1" dilations="1, 1" auto_pad="same_upper"/>
			<input>
				<port id="0" precision="FP32">
					<dim>1</dim>
					<dim>864</dim>
					<dim>12</dim>
					<dim>16</dim>
				</port>
				<port id="1" precision="FP32">
					<dim>864</dim>
					<dim>1</dim>
					<dim>1</dim>
					<dim>3</dim>
					<dim>3</dim>
				</port>
			</input>
			<output>
				<port id="2" precision="FP32" names="depthwise_11:0">
					<dim>1</dim>
					<dim>864</dim>
					<dim>12</dim>
					<dim>16</dim>
				</port>
			</output>
		</layer>
		<layer id="172" name="Add_23/y" type="Const" version="opset1">
			<data element_type="f32" shape="1, 864, 1, 1" offset="3179376" size="3456"/>
			<output>
				<port id="0" precision="FP32" names="Add_23/y:0">
					<dim>1</dim>
					<dim>864</dim>
					<dim>1</dim>
					<dim>1</dim>
				</port>
			</output>
		</layer>
		<layer id="173" name="Add_23" type="Add" version="opset1">
			<data auto_broadcast="numpy"/>
			<input>
				<port id="0" precision="FP32">
					<dim>1</dim>
					<dim>864</dim>
					<dim>12</dim>
					<dim>16</dim>
				</port>
				<port id="1" precision="FP32">
					<dim>1</dim>
					<dim>864</dim>
					<dim>1</dim>
					<dim>1</dim>
				</port>
			</input>
			<output>
…
		<edge from-layer="81" from-port="1" to-layer="83" to-port="0"/>
		<edge from-layer="82" from-port="0" to-layer="83" to-port="1"/>
		<edge from-layer="83" from-port="2" to-layer="85" to-port="0"/>
		<edge from-layer="84" from-port="0" to-layer="85" to-port="1"/>
		<edge from-layer="85" from-port="2" to-layer="86" to-port="0"/>
		<edge from-layer="86" from-port="1" to-layer="88" to-port="0"/>
		<edge from-layer="87" from-port="0" to-layer="88" to-port="1"/>
		<edge from-layer="88" from-port="2" to-layer="90" to-port="0"/>
		<edge from-layer="89" from-port="0" to-layer="90" to-port="1"/>
		<edge from-layer="90" from-port="2" to-layer="91" to-port="1"/>
		<edge from-layer="91" from-port="2" to-layer="93" to-port="0"/>
		<edge from-layer="91" from-port="2" to-layer="305" to-port="0"/>
		<edge from-layer="92" from-port="0" to-layer="93" to-port="1"/>
		<edge from-layer="93" from-port="2" to-layer="95" to-port="0"/>
		<edge from-layer="94" from-port="0" to-layer="95" to-port="1"/>
		<edge from-layer="95" from-port="2" to-layer="96" to-port="0"/>
		<edge from-layer="96" from-port="1" to-layer="98" to-port="0"/>
		<edge from-layer="97" from-port="0" to-layer="98" to-port="1"/>
		<edge from-layer="98" from-port="2" to-layer="100" to-port="0"/>
		<edge from-layer="99" from-port="0" to-layer="100" to-port="1"/>
		<edge from-layer="100" from-port="2" to-layer="101" to-port="0"/>
		<edge from-layer="101" from-port="1" to-layer="103" to-port="0"/>
		<edge from-layer="102" from-port="0" to-layer="103" to-port="1"/>
		<edge from-layer="103" from-port="2" to-layer="105" to-port="0"/>
		<edge from-layer="104" from-port="0" to-layer="105" to-port="1"/>
		<edge from-layer="105" from-port="2" to-layer="107" to-port="0"/>
		<edge from-layer="105" from-port="2" to-layer="120" to-port="0"/>
		<edge from-layer="106" from-port="0" to-layer="107" to-port="1"/>
		<edge from-layer="107" from-port="2" to-layer="109" to-port="0"/>
		<edge from-layer="108" from-port="0" to-layer="109" to-port="1"/>
		<edge from-layer="109" from-port="2" to-layer="110" to-port="0"/>
		<edge from-layer="110" from-port="1" to-layer="112" to-port="0"/>
		<edge from-layer="111" from-port="0" to-layer="112" to-port="1"/>
		<edge from-layer="112" from-port="2" to-layer="114" to-port="0"/>
		<edge from-layer="113" from-port="0" to-layer="114" to-port="1"/>
		<edge from-layer="114" from-port="2" to-layer="115" to-port="0"/>
		<edge from-layer="115" from-port="1" to-layer="117" to-port="0"/>
		<edge from-layer="116" from-port="0" to-layer="117" to-port="1"/>
		<edge from-layer="117" from-port="2" to-layer="119" to-port="0"/>
		<edge from-layer="118" from-port="0" to-layer="119" to-port="1"/>
		<edge from-layer="119" from-port="2" to-layer="120" to-port="1"/>
		<edge from-layer="120" from-port="2" to-layer="135" to-port="0"/>
		<edge from-layer="120" from-port="2" to-layer="122" to-port="0"/>
		<edge from-layer="121" from-port="0" to-layer="122" to-port="1"/>
		<edge from-layer="122" from-port="2" to-layer="124" to-port="0"/>
		<edge from-layer="123" from-port="0" to-layer="124" to-port="1"/>
		<edge from-layer="124" from-port="2" to-layer="125" to-port="0"/>
		<edge from-layer="125" from-port="1" to-layer="127" to-port="0"/>
		<edge from-layer="126" from-port="0" to-layer="127" to-port="1"/>
		<edge from-layer="127" from-port="2" to-layer="129" to-port="0"/>
		<edge from-layer="128" from-port="0" to-layer="129" to-port="1"/>
		<edge from-layer="129" from-port="2" to-layer="130" to-port="0"/>
		<edge from-layer="130" from-port="1" to-layer="132" to-port="0"/>
		<edge from-layer="131" from-port="0" to-layer="132" to-port="1"/>
		<edge from-layer="132" from-port="2" to-layer="134" to-port="0"/>
		<edge from-layer="133" from-port="0" to-layer="134" to-port="1"/>
		<edge from-layer="134" from-port="2" to-layer="135" to-port="1"/>
		<edge from-layer="135" from-port="2" to-layer="137" to-port="0"/>
		<edge from-layer="135" from-port="2" to-layer="150" to-port="0"/>
		<edge from-layer="136" from-port="0" to-layer="137" to-port="1"/>
		<edge from-layer="137" from-port="2" to-layer="139" to-port="0"/>
		<edge from-layer="138" from-port="0" to-layer="139" to-port="1"/>
		<edge from-layer="139" from-port="2" to-layer="140" to-port="0"/>
		<edge from-layer="140" from-port="1" to-layer="142" to-port="0"/>
		<edge from-layer="141" from-port="0" to-layer="142" to-port="1"/>
		<edge from-layer="142" from-port="2" to-layer="144" to-port="0"/>
		<edge from-layer="143" from-port="0" to-layer="144" to-port="1"/>
		<edge from-layer="144" from-port="2" to-layer="145" to-port="0"/>
		<edge from-layer="145" from-port="1" to-layer="147" to-port="0"/>
		<edge from-layer="146" from-port="0" to-layer="147" to-port="1"/>
		<edge from-layer="147" from-port="2" to-layer="149" to-port="0"/>
		<edge from-layer="148" from-port="0" to-layer="149" to-port="1"/>
		<edge from-layer="149" from-port="2" to-layer="150" to-port="1"/>
		<edge from-layer="150" from-port="2" to-layer="277" to-port="0"/>
		<edge from-layer="150" from-port="2" to-layer="152" to-port="0"/>
		<edge from-layer="151" from-port="0" to-layer="152" to-port="1"/>
		<edge from-layer="152" from-port="2" to-layer="154" to-port="0"/>
		<edge from-layer="153" from-port="0" to-layer="154" to-port="1"/>
		<edge from-layer="154" from-port="2" to-layer="155" to-port="0"/>
		<edge from-layer="155" from-port="1" to-layer="157" to-port="0"/>
		<edge from-layer="156" from-port="0" to-layer="157" to-port="1"/>
		<edge from-layer="157" from-port="2" to-layer="159" to-port="0"/>
		<edge from-layer="158" from-port="0" to-layer="159" to-port="1"/>
		<edge from-layer="159" from-port="2" to-layer="160" to-port="0"/>
		<edge from-layer="160" from-port="1" to-layer="162" to-port="0"/>
		<edge from-layer="161" from-port="0" to-layer="162" to-port="1"/>
		<edge from-layer="162" from-port="2" to-layer="164" to-port="0"/>
		<edge from-layer="163" from-port="0" to-layer="164" to-port="1"/>
		<edge from-layer="164" from-port="2" to-layer="166" to-port="0"/>
		<edge from-layer="164" from-port="2" to-layer="179" to-port="0"/>
		<edge from-layer="165" from-port="0" to-layer="166" to-port="1"/>
		<edge from-layer="166" from-port="2" to-layer="168" to-port="0"/>
		<edge from-layer="167" from-port="0" to-layer="168" to-port="1"/>
		<edge from-layer="168" from-port="2" to-layer="169" to-port="0"/>
		<edge from-layer="169" from-port="1" to-layer="171" to-port="0"/>
		<edge from-layer="170" from-port="0" to-layer="171" to-port="1"/>
		<edge from-layer="171" from-port="2" to-layer="173" to-port="0"/>
		<edge from-layer="172" from-port="0" to-layer="173" to-port="1"/>
		<edge from-layer="173" from-port="2" to-layer="174" to-port="0"/>
		<edge from-layer="174" from-port="1" to-layer="176" to-port="0"/>
		<edge from-layer="175" from-port="0" to-layer="176" to-port="1"/>
		<edge from-layer="176" from-port="2" to-layer="178" to-port="0"/>
		<edge from-layer="177" from-port="0" to-layer="178" to-port="1"/>
		<edge from-layer="178" from-port="2" to-layer="179" to-port="1"/>
		<edge from-layer="179" from-port="2" to-layer="181" to-port="0"/>
		<edge from-layer="179" from-port="2" to-layer="194" to-port="0"/>
		<edge from-layer="180" from-port="0" to-layer="181" to-port="1"/>
		<edge from-layer="181" from-port="2" to-layer="183" to-port="0"/>
		<edge from-layer="182" from-port="0" to-layer="183" to-port="1"/>
		<edge from-layer="183" from-port="2" to-layer="184" to-port="0"/>
		<edge from-layer="184" from-port="1" to-layer="186" to-port="0"/>
		<edge from-layer="185" from-port="0" to-layer="186" to-port="1"/>
		<edge from-layer="186" from-port="2" to-layer="188" to-port="0"/>
		<edge from-layer="187" from-port="0" to-layer="188" to-port="1"/>
		<edge from-layer="188" from-port="2" to-layer="189" to-port="0"/>
		<edge from-layer="189" from-port="1" to-layer="191" to-port="0"/>
		<edge from-layer="190" from-port="0" to-layer="191" to-port="1"/>
		<edge from-layer="191" from-port="2" to-layer="193" to-port="0"/>
		<edge from-layer="192" from-port="0" to-layer="193" to-port="1"/>
		<edge from-layer="193" from-port="2" to-layer="194" to-port="1"/>
		<edge from-layer="194" from-port="2" to-layer="196" to-port="0"/>
		<edge from-layer="195" from-port="0" to-layer="196" to-port="1"/>
		<edge from-layer="196" from-port="2" to-layer="198" to-port="0"/>
		<edge from-layer="197" from-port="0" to-layer="198" to-port="1"/>
		<edge from-layer="198" from-port="2" to-layer="199" to-port="0"/>
		<edge from-layer="199" from-port="1" to-layer="201" to-port="0"/>
		<edge from-layer="200" from-port="0" to-layer="201" to-port="1"/>
		<edge from-layer="201" from-port="2" to-layer="203" to-port="0"/>
		<edge from-layer="202" from-port="0" to-layer="203" to-port="1"/>
		<edge from-layer="203" from-port="2" to-layer="204" to-port="0"/>
		<edge from-layer="204" from-port="1" to-layer="206" to-port="0"/>
		<edge from-layer="205" from-port="0" to-layer="206" to-port="1"/>
		<edge from-layer="206" from-port="2" to-layer="208" to-port="0"/>
		<edge from-layer="207" from-port="0" to-layer="208" to-port="1"/>
		<edge from-layer="208" from-port="2" to-layer="210" to-port="0"/>
		<edge from-layer="208" from-port="2" to-layer="223" to-port="0"/>
		<edge from-layer="209" from-port="0" to-layer="210" to-port="1"/>
		<edge from-layer="210" from-port="2" to-layer="212" to-port="0"/>
		<edge from-layer="211" from-port="0" to-layer="212" to-port="1"/>
		<edge from-layer="212" from-port="2" to-layer="213" to-port="0"/>
		<edge from-layer="213" from-port="1" to-layer="215" to-port="0"/>
		<edge from-layer="214" from-port="0" to-layer="215" to-port="1"/>
		<edge from-layer="215" from-port="2" to-layer="217" to-port="0"/>
		<edge from-layer="216" from-port="0" to-layer="217" to-port="1"/>
		<edge from-layer="217" from-port="2" to-layer="218" to-port="0"/>
		<edge from-layer="218" from-port="1" to-layer="220" to-port="0"/>
		<edge from-layer="219" from-port="0" to-layer="220" to-port="1"/>
		<edge from-layer="220" from-port="2" to-layer="222" to-port="0"/>
		<edge from-layer="221" from-port="0" to-layer="222" to-port="1"/>
		<edge from-layer="222" from-port="2" to-layer="223" to-port="1"/>
		<edge from-layer="223" from-port="2" to-layer="225" to-port="0"/>
		<edge from-layer="223" from-port="2" to-layer="238" to-port="0"/>
		<edge from-layer="224" from-port="0" to-layer="225" to-port="1"/>
		<edge from-layer="225" from-port="2" to-layer="227" to-port="0"/>
		<edge from-layer="226" from-port="0" to-layer="227" to-port="1"/>
		<edge from-layer="227" from-port="2" to-layer="228" to-port="0"/>
		<edge from-layer="228" from-port="1" to-layer="230" to-port="0"/>
		<edge from-layer="229" from-port="0" to-layer="230" to-port="1"/>
		<edge from-layer="230" from-port="2" to-layer="232" to-port="0"/>
		<edge from-layer="231" from-port="0" to-layer="232" to-port="1"/>
		<edge from-layer="232" from-port="2" to-layer="233" to-port="0"/>
		<edge from-layer="233" from-port="1" to-layer="235" to-port="0"/>
		<edge from-layer="234" from-port="0" to-layer="235" to-port="1"/>
		<edge from-layer="235" from-port="2" to-layer="237" to-port="0"/>
		<edge from-layer="236" from-port="0" to-layer="237" to-port="1"/>
		<edge from-layer="237" from-port="2" to-layer="238" to-port="1"/>
		<edge from-layer="238" from-port="2" to-layer="240" to-port="0"/>
		<edge from-layer="239" from-port="0" to-layer="240" to-port="1"/>
		<edge from-layer="240" from-port="2" to-layer="242" to-port="0"/>
		<edge from-layer="241" from-port="0" to-layer="242" to-port="1"/>
		<edge from-layer="242" from-port="2" to-layer="243" to-port="0"/>
		<edge from-layer="243" from-port="1" to-layer="245" to-port="0"/>
		<edge from-layer="244" from-port="0" to-layer="245" to-port="1"/>
		<edge from-layer="245" from-port="2" to-layer="247" to-port="0"/>
		<edge from-layer="246" from-port="0" to-layer="247" to-port="1"/>
		<edge from-layer="247" from-port="2" to-layer="248" to-port="0"/>
		<edge from-layer="248" from-port="1" to-layer="250" to-port="0"/>
		<edge from-layer="249" from-port="0" to-layer="250" to-port="1"/>
		<edge from-layer="250" from-port="2" to-layer="252" to-port="0"/>
		<edge from-layer="251" from-port="0" to-layer="252" to-port="1"/>
		<edge from-layer="252" from-port="2" to-layer="254" to-port="0"/>
		<edge from-layer="253" from-port="0" to-layer="254" to-port="1"/>
		<edge from-layer="254" from-port="2" to-layer="256" to-port="0"/>
		<edge from-layer="255" from-port="0" to-layer="256" to-port="1"/>
		<edge from-layer="256" from-port="2" to-layer="257" to-port="0"/>
		<edge from-layer="257" from-port="1" to-layer="259" to-port="0"/>
		<edge from-layer="258" from-port="0" to-layer="259" to-port="1"/>
		<edge from-layer="259" from-port="2" to-layer="261" to-port="0"/>
		<edge from-layer="260" from-port="0" to-layer="261" to-port="1"/>
		<edge from-layer="261" from-port="2" to-layer="264" to-port="0"/>
		<edge from-layer="261" from-port="2" to-layer="275" to-port="0"/>
		<edge from-layer="262" from-port="0" to-layer="275" to-port="1"/>
		<edge from-layer="263" from-port="0" to-layer="273" to-port="0"/>
		<edge from-layer="264" from-port="1" to-layer="267" to-port="0"/>
		<edge from-layer="265" from-port="0" to-layer="267" to-port="1"/>
		<edge from-layer="266" from-port="0" to-layer="267" to-port="2"/>
		<edge from-layer="267" from-port="3" to-layer="271" to-port="0"/>
		<edge from-layer="268" from-port="0" to-layer="271" to-port="1"/>
		<edge from-layer="269" from-port="0" to-layer="271" to-port="2"/>
		<edge from-layer="270" from-port="0" to-layer="271" to-port="3"/>
		<edge from-layer="271" from-port="4" to-layer="272" to-port="0"/>
		<edge from-layer="272" from-port="1" to-layer="273" to-port="1"/>
		<edge from-layer="273" from-port="2" to-layer="275" to-port="2"/>
		<edge from-layer="274" from-port="0" to-layer="275" to-port="3"/>
		<edge from-layer="275" from-port="4" to-layer="280" to-port="0"/>
		<edge from-layer="276" from-port="0" to-layer="277" to-port="1"/>
		<edge from-layer="277" from-port="2" to-layer="279" to-port="0"/>
		<edge from-layer="278" from-port="0" to-layer="279" to-port="1"/>
		<edge from-layer="279" from-port="2" to-layer="280" to-port="1"/>
		<edge from-layer="280" from-port="2" to-layer="282" to-port="0"/>
		<edge from-layer="281" from-port="0" to-layer="282" to-port="1"/>
		<edge from-layer="282" from-port="2" to-layer="284" to-port="0"/>
		<edge from-layer="283" from-port="0" to-layer="284" to-port="1"/>
		<edge from-layer="284" from-port="2" to-layer="286" to-port="0"/>
		<edge from-layer="285" from-port="0" to-layer="286" to-port="1"/>
		<edge from-layer="286" from-port="2" to-layer="288" to-port="0"/>
		<edge from-layer="287" from-port="0" to-layer="288" to-port="1"/>
		<edge from-layer="288" from-port="2" to-layer="289" to-port="0"/>
		<edge from-layer="289" from-port="1" to-layer="303" to-port="0"/>
		<edge from-layer="289" from-port="1" to-layer="292" to-port="0"/>
		<edge from-layer="290" from-port="0" to-layer="303" to-port="1"/>
		<edge from-layer="291" from-port="0" to-layer="301" to-port="0"/>
		<edge from-layer="292" from-port="1" to-layer="295" to-port="0"/>
		<edge from-layer="293" from-port="0" to-layer="295" to-port="1"/>
		<edge from-layer="294" from-port="0" to-layer="295" to-port="2"/>
		<edge from-layer="295" from-port="3" to-layer="299" to-port="0"/>
		<edge from-layer="296" from-port="0" to-layer="299" to-port="1"/>
		<edge from-layer="297" from-port="0" to-layer="299" to-port="2"/>
		<edge from-layer="298" from-port="0" to-layer="299" to-port="3"/>
		<edge from-layer="299" from-port="4" to-layer="300" to-port="0"/>
		<edge from-layer="300" from-port="1" to-layer="301" to-port="1"/>
		<edge from-layer="301" from-port="2" to-layer="303" to-port="2"/>
		<edge from-layer="302" from-port="0" to-layer="303" to-port="3"/>
		<edge from-layer="303" from-port="4" to-layer="308" to-port="0"/>
		<edge from-layer="304" from-port="0" to-layer="305" to-port="1"/>
		<edge from-layer="305" from-port="2" to-layer="307" to-port="0"/>
		<edge from-layer="306" from-port="0" to-layer="307" to-port="1"/>
		<edge from-layer="307" from-port="2" to-layer="308" to-port="1"/>
		<edge from-layer="308" from-port="2" to-layer="310" to-port="0"/>
		<edge from-layer="309" from-port="0" to-layer="310" to-port="1"/>
		<edge from-layer="310" from-port="2" to-layer="312" to-port="0"/>
		<edge from-layer="311" from-port="0" to-layer="312" to-port="1"/>
		<edge from-layer="312" from-port="2" to-layer="314" to-port="0"/>
		<edge from-layer="313" from-port="0" to-layer="314" to-port="1"/>
		<edge from-layer="314" from-port="2" to-layer="316" to-port="0"/>
		<edge from-layer="315" from-port="0" to-layer="316" to-port="1"/>
		<edge from-layer="316" from-port="2" to-layer="317" to-port="0"/>
		<edge from-layer="317" from-port="1" to-layer="320" to-port="0"/>
		<edge from-layer="317" from-port="1" to-layer="331" to-port="0"/>
		<edge from-layer="318" from-port="0" to-layer="331" to-port="1"/>
		<edge from-layer="319" from-port="0" to-layer="329" to-port="0"/>
		<edge from-layer="320" from-port="1" to-layer="323" to-port="0"/>
		<edge from-layer="321" from-port="0" to-layer="323" to-port="1"/>
		<edge from-layer="322" from-port="0" to-layer="323" to-port="2"/>
		<edge from-layer="323" from-port="3" to-layer="327" to-port="0"/>
		<edge from-layer="324" from-port="0" to-layer="327" to-port="1"/>
		<edge from-layer="325" from-port="0" to-layer="327" to-port="2"/>
		<edge from-layer="326" from-port="0" to-layer="327" to-port="3"/>
		<edge from-layer="327" from-port="4" to-layer="328" to-port="0"/>
		<edge from-layer="328" from-port="1" to-layer="329" to-port="1"/>
		<edge from-layer="329" from-port="2" to-layer="331" to-port="2"/>
		<edge from-layer="330" from-port="0" to-layer="331" to-port="3"/>
		<edge from-layer="331" from-port="4" to-layer="336" to-port="0"/>
		<edge from-layer="332" from-port="0" to-layer="333" to-port="1"/>
		<edge from-layer="333" from-port="2" to-layer="335" to-port="0"/>
		<edge from-layer="334" from-port="0" to-layer="335" to-port="1"/>
		<edge from-layer="335" from-port="2" to-layer="336" to-port="1"/>
		<edge from-layer="336" from-port="2" to-layer="338" to-port="0"/>
		<edge from-layer="337" from-port="0" to-layer="338" to-port="1"/>
		<edge from-layer="338" from-port="2" to-layer="340" to-port="0"/>
		<edge from-layer="339" from-port="0" to-layer="340" to-port="1"/>
		<edge from-layer="340" from-port="2" to-layer="342" to-port="0"/>
		<edge from-layer="341" from-port="0" to-layer="342" to-port="1"/>
		<edge from-layer="342" from-port="2" to-layer="344" to-port="0"/>
		<edge from-layer="343" from-port="0" to-layer="344" to-port="1"/>
		<edge from-layer="344" from-port="2" to-layer="345" to-port="0"/>
		<edge from-layer="345" from-port="1" to-layer="347" to-port="0"/>
		<edge from-layer="345" from-port="1" to-layer="408" to-port="0"/>
		<edge from-layer="345" from-port="1" to-layer="479" to-port="0"/>
		<edge from-layer="345" from-port="1" to-layer="512" to-port="0"/>
		<edge from-layer="345" from-port="1" to-layer="616" to-port="0"/>
		<edge from-layer="345" from-port="1" to-layer="372" to-port="0"/>
		<edge from-layer="346" from-port="0" to-layer="347" to-port="1"/>
		<edge from-layer="347" from-port="2" to-layer="349" to-port="0"/>
		<edge from-layer="348" from-port="0" to-layer="349" to-port="1"/>
		<edge from-layer="349" from-port="2" to-layer="351" to-port="0"/>
		<edge from-layer="350" from-port="0" to-layer="351" to-port="1"/>
		<edge from-layer="351" from-port="2" to-layer="353" to-port="0"/>
		<edge from-layer="352" from-port="0" to-layer="353" to-port="1"/>
		<edge from-layer="353" from-port="2" to-layer="354" to-port="0"/>
		<edge from-layer="354" from-port="1" to-layer="356" to-port="0"/>
		<edge from-layer="355" from-port="0" to-layer="356" to-port="1"/>
		<edge from-layer="356" from-port="2" to-layer="358" to-port="0"/>
		<edge from-layer="357" from-port="0" to-layer="358" to-port="1"/>
		<edge from-layer="358" from-port="2" to-layer="359" to-port="0"/>
		<edge from-layer="359" from-port="1" to-layer="361" to-port="0"/>
		<edge from-layer="360" from-port="0" to-layer="361" to-port="1"/>
		<edge from-layer="361" from-port="2" to-layer="363" to-port="0"/>
		<edge from-layer="362" from-port="0" to-layer="363" to-port="1"/>
		<edge from-layer="363" from-port="2" to-layer="365" to-port="0"/>
		<edge from-layer="364" from-port="0" to-layer="365" to-port="1"/>
		<edge from-layer="365" from-port="2" to-layer="369" to-port="0"/>
		<edge from-layer="366" from-port="0" to-layer="369" to-port="1"/>
		<edge from-layer="367" from-port="0" to-layer="369" to-port="2"/>
		<edge from-layer="368" from-port="0" to-layer="369" to-port="3"/>
		<edge from-layer="369" from-port="4" to-layer="475" to-port="0"/>
		<edge from-layer="370" from-port="0" to-layer="452" to-port="0"/>
		<edge from-layer="371" from-port="0" to-layer="372" to-port="1"/>
		<edge from-layer="372" from-port="2" to-layer="374" to-port="0"/>
		<edge from-layer="373" from-port="0" to-layer="374" to-port="1"/>
		<edge from-layer="374" from-port="2" to-layer="376" to-port="0"/>
		<edge from-layer="375" from-port="0" to-layer="376" to-port="1"/>
		<edge from-layer="376" from-port="2" to-layer="378" to-port="0"/>
		<edge from-layer="377" from-port="0" to-layer="378" to-port="1"/>
		<edge from-layer="378" from-port="2" to-layer="379" to-port="0"/>
		<edge from-layer="379" from-port="1" to-layer="381" to-port="0"/>
		<edge from-layer="380" from-port="0" to-layer="381" to-port="1"/>
		<edge from-layer="381" from-port="2" to-layer="383" to-port="0"/>
		<edge from-layer="382" from-port="0" to-layer="383" to-port="1"/>
		<edge from-layer="383" from-port="2" to-layer="384" to-port="0"/>
		<edge from-layer="384" from-port="1" to-layer="385" to-port="0"/>
		<edge from-layer="384" from-port="1" to-layer="386" to-port="0"/>
		<edge from-layer="384" from-port="1" to-layer="391" to-port="0"/>
		<edge from-layer="385" from-port="1" to-layer="386" to-port="1"/>
		<edge from-layer="386" from-port="2" to-layer="387" to-port="0"/>
		<edge from-layer="387" from-port="1" to-layer="389" to-port="0"/>
		<edge from-layer="388" from-port="0" to-layer="389" to-port="1"/>
		<edge from-layer="389" from-port="2" to-layer="390" to-port="0"/>
		<edge from-layer="390" from-port="1" to-layer="391" to-port="1"/>
		<edge from-layer="391" from-port="2" to-layer="393" to-port="0"/>
		<edge from-layer="392" from-port="0" to-layer="393" to-port="1"/>
		<edge from-layer="393" from-port="2" to-layer="395" to-port="0"/>
		<edge from-layer="394" from-port="0" to-layer="395" to-port="1"/>
		<edge from-layer="395" from-port="2" to-layer="397" to-port="0"/>
		<edge from-layer="396" from-port="0" to-layer="397" to-port="1"/>
		<edge from-layer="397" from-port="2" to-layer="718" to-port="0"/>
		<edge from-layer="397" from-port="3" to-layer="399" to-port="0"/>
		<edge from-layer="397" from-port="3" to-layer="687" to-port="0"/>
		<edge from-layer="398" from-port="0" to-layer="399" to-port="1"/>
		<edge from-layer="399" from-port="2" to-layer="400" to-port="0"/>
		<edge from-layer="400" from-port="1" to-layer="687" to-port="1"/>
		<edge from-layer="400" from-port="1" to-layer="402" to-port="0"/>
		<edge from-layer="400" from-port="1" to-layer="430" to-port="0"/>
		<edge from-layer="401" from-port="0" to-layer="402" to-port="1"/>
		<edge from-layer="402" from-port="2" to-layer="403" to-port="0"/>
		<edge from-layer="403" from-port="1" to-layer="405" to-port="0"/>
		<edge from-layer="403" from-port="1" to-layer="495" to-port="0"/>
		<edge from-layer="403" from-port="1" to-layer="477" to-port="0"/>
		<edge from-layer="403" from-port="1" to-layer="429" to-port="0"/>
		<edge from-layer="403" from-port="1" to-layer="425" to-port="0"/>
		<edge from-layer="404" from-port="0" to-layer="405" to-port="1"/>
		<edge from-layer="405" from-port="2" to-layer="406" to-port="0"/>
		<edge from-layer="406" from-port="1" to-layer="443" to-port="0"/>
		<edge from-layer="407" from-port="0" to-layer="408" to-port="1"/>
		<edge from-layer="408" from-port="2" to-layer="410" to-port="0"/>
		<edge from-layer="409" from-port="0" to-layer="410" to-port="1"/>
		<edge from-layer="410" from-port="2" to-layer="412" to-port="0"/>
		<edge from-layer="411" from-port="0" to-layer="412" to-port="1"/>
		<edge from-layer="412" from-port="2" to-layer="414" to-port="0"/>
		<edge from-layer="413" from-port="0" to-layer="414" to-port="1"/>
		<edge from-layer="414" from-port="2" to-layer="415" to-port="0"/>
		<edge from-layer="415" from-port="1" to-layer="417" to-port="0"/>
		<edge from-layer="416" from-port="0" to-layer="417" to-port="1"/>
		<edge from-layer="417" from-port="2" to-layer="419" to-port="0"/>
		<edge from-layer="418" from-port="0" to-layer="419" to-port="1"/>
		<edge from-layer="419" from-port="2" to-layer="421" to-port="0"/>
		<edge from-layer="420" from-port="0" to-layer="421" to-port="1"/>
		<edge from-layer="421" from-port="2" to-layer="423" to-port="0"/>
		<edge from-layer="422" from-port="0" to-layer="423" to-port="1"/>
		<edge from-layer="423" from-port="2" to-layer="436" to-port="0"/>
		<edge from-layer="424" from-port="0" to-layer="425" to-port="1"/>
		<edge from-layer="425" from-port="2" to-layer="427" to-port="0"/>
		<edge from-layer="426" from-port="0" to-layer="427" to-port="1"/>
		<edge from-layer="427" from-port="2" to-layer="435" to-port="0"/>
		<edge from-layer="428" from-port="0" to-layer="429" to-port="1"/>
		<edge from-layer="429" from-port="2" to-layer="430" to-port="1"/>
		<edge from-layer="430" from-port="2" to-layer="432" to-port="0"/>
		<edge from-layer="430" from-port="2" to-layer="499" to-port="0"/>
		<edge from-layer="430" from-port="2" to-layer="542" to-port="0"/>
		<edge from-layer="430" from-port="2" to-layer="456" to-port="0"/>
		<edge from-layer="431" from-port="0" to-layer="432" to-port="1"/>
		<edge from-layer="432" from-port="2" to-layer="434" to-port="0"/>
		<edge from-layer="433" from-port="0" to-layer="434" to-port="1"/>
		<edge from-layer="434" from-port="2" to-layer="435" to-port="1"/>
		<edge from-layer="435" from-port="2" to-layer="436" to-port="1"/>
		<edge from-layer="436" from-port="2" to-layer="438" to-port="0"/>
		<edge from-layer="437" from-port="0" to-layer="438" to-port="1"/>
		<edge from-layer="438" from-port="2" to-layer="440" to-port="0"/>
		<edge from-layer="439" from-port="0" to-layer="440" to-port="1"/>
		<edge from-layer="440" from-port="3" to-layer="459" to-port="0"/>
		<edge from-layer="440" from-port="2" to-layer="442" to-port="0"/>
		<edge from-layer="441" from-port="0" to-layer="442" to-port="1"/>
		<edge from-layer="442" from-port="2" to-layer="443" to-port="1"/>
		<edge from-layer="443" from-port="2" to-layer="445" to-port="0"/>
		<edge from-layer="444" from-port="0" to-layer="445" to-port="1"/>
		<edge from-layer="445" from-port="2" to-layer="447" to-port="0"/>
		<edge from-layer="446" from-port="0" to-layer="447" to-port="1"/>
		<edge from-layer="447" from-port="2" to-layer="451" to-port="0"/>
		<edge from-layer="448" from-port="0" to-layer="451" to-port="1"/>
		<edge from-layer="449" from-port="0" to-layer="451" to-port="2"/>
		<edge from-layer="450" from-port="0" to-layer="451" to-port="3"/>
		<edge from-layer="451" from-port="4" to-layer="452" to-port="1"/>
		<edge from-layer="452" from-port="2" to-layer="453" to-port="0"/>
		<edge from-layer="452" from-port="2" to-layer="453" to-port="1"/>
		<edge from-layer="453" from-port="2" to-layer="471" to-port="0"/>
		<edge from-layer="454" from-port="0" to-layer="469" to-port="0"/>
		<edge from-layer="455" from-port="0" to-layer="456" to-port="1"/>
		<edge from-layer="456" from-port="2" to-layer="457" to-port="0"/>
		<edge from-layer="457" from-port="1" to-layer="460" to-port="0"/>
		<edge from-layer="458" from-port="0" to-layer="459" to-port="1"/>
		<edge from-layer="459" from-port="2" to-layer="460" to-port="1"/>
		<edge from-layer="460" from-port="2" to-layer="462" to-port="0"/>
		<edge from-layer="461" from-port="0" to-layer="462" to-port="1"/>
		<edge from-layer="462" from-port="2" to-layer="464" to-port="0"/>
		<edge from-layer="463" from-port="0" to-layer="464" to-port="1"/>
		<edge from-layer="464" from-port="2" to-layer="468" to-port="0"/>
		<edge from-layer="465" from-port="0" to-layer="468" to-port="1"/>
		<edge from-layer="466" from-port="0" to-layer="468" to-port="2"/>
		<edge from-layer="467" from-port="0" to-layer="468" to-port="3"/>
		<edge from-layer="468" from-port="4" to-layer="469" to-port="1"/>
		<edge from-layer="469" from-port="2" to-layer="470" to-port="1"/>
		<edge from-layer="469" from-port="2" to-layer="470" to-port="0"/>
		<edge from-layer="470" from-port="2" to-layer="471" to-port="1"/>
		<edge from-layer="471" from-port="2" to-layer="473" to-port="0"/>
		<edge from-layer="472" from-port="0" to-layer="473" to-port="1"/>
		<edge from-layer="473" from-port="2" to-layer="474" to-port="0"/>
		<edge from-layer="474" from-port="1" to-layer="475" to-port="1"/>
		<edge from-layer="475" from-port="2" to-layer="600" to-port="0"/>
		<edge from-layer="476" from-port="0" to-layer="575" to-port="0"/>
		<edge from-layer="477" from-port="1" to-layer="510" to-port="0"/>
		<edge from-layer="478" from-port="0" to-layer="479" to-port="1"/>
		<edge from-layer="479" from-port="2" to-layer="481" to-port="0"/>
		<edge from-layer="480" from-port="0" to-layer="481" to-port="1"/>
		<edge from-layer="481" from-port="2" to-layer="483" to-port="0"/>
		<edge from-layer="482" from-port="0" to-layer="483" to-port="1"/>
		<edge from-layer="483" from-port="2" to-layer="485" to-port="0"/>
		<edge from-layer="484" from-port="0" to-layer="485" to-port="1"/>
		<edge from-layer="485" from-port="2" to-layer="486" to-port="0"/>
		<edge from-layer="486" from-port="1" to-layer="488" to-port="0"/>
		<edge from-layer="487" from-port="0" to-layer="488" to-port="1"/>
		<edge from-layer="488" from-port="2" to-layer="490" to-port="0"/>
		<edge from-layer="489" from-port="0" to-layer="490" to-port="1"/>
		<edge from-layer="490" from-port="2" to-layer="492" to-port="0"/>
		<edge from-layer="491" from-port="0" to-layer="492" to-port="1"/>
		<edge from-layer="492" from-port="2" to-layer="503" to-port="0"/>
		<edge from-layer="493" from-port="0" to-layer="502" to-port="0"/>
		<edge from-layer="494" from-port="0" to-layer="495" to-port="1"/>
		<edge from-layer="495" from-port="2" to-layer="497" to-port="0"/>
		<edge from-layer="496" from-port="0" to-layer="497" to-port="1"/>
		<edge from-layer="497" from-port="2" to-layer="502" to-port="1"/>
		<edge from-layer="498" from-port="0" to-layer="499" to-port="1"/>
		<edge from-layer="499" from-port="2" to-layer="501" to-port="0"/>
		<edge from-layer="500" from-port="0" to-layer="501" to-port="1"/>
		<edge from-layer="501" from-port="2" to-layer="502" to-port="2"/>
		<edge from-layer="502" from-port="3" to-layer="526" to-port="1"/>
		<edge from-layer="502" from-port="3" to-layer="503" to-port="1"/>
		<edge from-layer="503" from-port="2" to-layer="505" to-port="0"/>
		<edge from-layer="504" from-port="0" to-layer="505" to-port="1"/>
		<edge from-layer="505" from-port="2" to-layer="507" to-port="0"/>
		<edge from-layer="506" from-port="0" to-layer="507" to-port="1"/>
		<edge from-layer="507" from-port="2" to-layer="509" to-port="0"/>
		<edge from-layer="507" from-port="3" to-layer="544" to-port="0"/>
		<edge from-layer="508" from-port="0" to-layer="509" to-port="1"/>
		<edge from-layer="509" from-port="2" to-layer="510" to-port="1"/>
		<edge from-layer="510" from-port="2" to-layer="536" to-port="0"/>
		<edge from-layer="510" from-port="2" to-layer="556" to-port="0"/>
		<edge from-layer="511" from-port="0" to-layer="512" to-port="1"/>
		<edge from-layer="512" from-port="2" to-layer="514" to-port="0"/>
		<edge from-layer="513" from-port="0" to-layer="514" to-port="1"/>
		<edge from-layer="514" from-port="2" to-layer="516" to-port="0"/>
		<edge from-layer="515" from-port="0" to-layer="516" to-port="1"/>
		<edge from-layer="516" from-port="2" to-layer="518" to-port="0"/>
		<edge from-layer="517" from-port="0" to-layer="518" to-port="1"/>
		<edge from-layer="518" from-port="2" to-layer="519" to-port="0"/>
		<edge from-layer="519" from-port="1" to-layer="521" to-port="0"/>
		<edge from-layer="520" from-port="0" to-layer="521" to-port="1"/>
		<edge from-layer="521" from-port="2" to-layer="523" to-port="0"/>
		<edge from-layer="522" from-port="0" to-layer="523" to-port="1"/>
		<edge from-layer="523" from-port="2" to-layer="525" to-port="0"/>
		<edge from-layer="524" from-port="0" to-layer="525" to-port="1"/>
		<edge from-layer="525" from-port="2" to-layer="526" to-port="0"/>
		<edge from-layer="526" from-port="2" to-layer="527" to-port="0"/>
		<edge from-layer="527" from-port="1" to-layer="529" to-port="0"/>
		<edge from-layer="528" from-port="0" to-layer="529" to-port="1"/>
		<edge from-layer="529" from-port="2" to-layer="531" to-port="0"/>
		<edge from-layer="530" from-port="0" to-layer="531" to-port="1"/>
		<edge from-layer="531" from-port="2" to-layer="533" to-port="0"/>
		<edge from-layer="531" from-port="3" to-layer="547" to-port="0"/>
		<edge from-layer="532" from-port="0" to-layer="533" to-port="1"/>
		<edge from-layer="533" from-port="2" to-layer="535" to-port="0"/>
		<edge from-layer="534" from-port="0" to-layer="535" to-port="1"/>
		<edge from-layer="535" from-port="2" to-layer="536" to-port="1"/>
		<edge from-layer="535" from-port="2" to-layer="556" to-port="1"/>
		<edge from-layer="536" from-port="2" to-layer="538" to-port="0"/>
		<edge from-layer="537" from-port="0" to-layer="538" to-port="1"/>
		<edge from-layer="538" from-port="2" to-layer="539" to-port="0"/>
		<edge from-layer="539" from-port="1" to-layer="541" to-port="0"/>
		<edge from-layer="540" from-port="0" to-layer="541" to-port="1"/>
		<edge from-layer="541" from-port="2" to-layer="568" to-port="0"/>
		<edge from-layer="542" from-port="1" to-layer="545" to-port="0"/>
		<edge from-layer="543" from-port="0" to-layer="544" to-port="1"/>
		<edge from-layer="544" from-port="2" to-layer="545" to-port="1"/>
		<edge from-layer="545" from-port="2" to-layer="550" to-port="0"/>
		<edge from-layer="545" from-port="2" to-layer="562" to-port="0"/>
		<edge from-layer="546" from-port="0" to-layer="547" to-port="1"/>
		<edge from-layer="547" from-port="2" to-layer="549" to-port="0"/>
		<edge from-layer="548" from-port="0" to-layer="549" to-port="1"/>
		<edge from-layer="549" from-port="2" to-layer="550" to-port="1"/>
		<edge from-layer="549" from-port="2" to-layer="562" to-port="1"/>
		<edge from-layer="550" from-port="2" to-layer="552" to-port="0"/>
		<edge from-layer="551" from-port="0" to-layer="552" to-port="1"/>
		<edge from-layer="552" from-port="2" to-layer="553" to-port="0"/>
		<edge from-layer="553" from-port="1" to-layer="555" to-port="0"/>
		<edge from-layer="554" from-port="0" to-layer="555" to-port="1"/>
		<edge from-layer="555" from-port="2" to-layer="568" to-port="1"/>
		<edge from-layer="556" from-port="2" to-layer="558" to-port="0"/>
		<edge from-layer="557" from-port="0" to-layer="558" to-port="1"/>
		<edge from-layer="558" from-port="2" to-layer="559" to-port="0"/>
		<edge from-layer="559" from-port="1" to-layer="561" to-port="0"/>
		<edge from-layer="560" from-port="0" to-layer="561" to-port="1"/>
		<edge from-layer="561" from-port="2" to-layer="568" to-port="2"/>
		<edge from-layer="562" from-port="2" to-layer="564" to-port="0"/>
		<edge from-layer="563" from-port="0" to-layer="564" to-port="1"/>
		<edge from-layer="564" from-port="2" to-layer="565" to-port="0"/>
		<edge from-layer="565" from-port="1" to-layer="567" to-port="0"/>
		<edge from-layer="566" from-port="0" to-layer="567" to-port="1"/>
		<edge from-layer="567" from-port="2" to-layer="568" to-port="3"/>
		<edge from-layer="568" from-port="4" to-layer="570" to-port="0"/>
		<edge from-layer="568" from-port="4" to-layer="683" to-port="0"/>
		<edge from-layer="569" from-port="0" to-layer="570" to-port="1"/>
		<edge from-layer="570" from-port="2" to-layer="572" to-port="0"/>
		<edge from-layer="571" from-port="0" to-layer="572" to-port="1"/>
		<edge from-layer="572" from-port="2" to-layer="574" to-port="0"/>
		<edge from-layer="572" from-port="4" to-layer="578" to-port="0"/>
		<edge from-layer="572" from-port="5" to-layer="587" to-port="0"/>
		<edge from-layer="572" from-port="3" to-layer="583" to-port="0"/>
		<edge from-layer="573" from-port="0" to-layer="574" to-port="1"/>
		<edge from-layer="574" from-port="2" to-layer="575" to-port="1"/>
		<edge from-layer="575" from-port="2" to-layer="580" to-port="0"/>
		<edge from-layer="576" from-port="0" to-layer="579" to-port="0"/>
		<edge from-layer="577" from-port="0" to-layer="578" to-port="1"/>
		<edge from-layer="578" from-port="2" to-layer="579" to-port="1"/>
		<edge from-layer="579" from-port="2" to-layer="580" to-port="1"/>
		<edge from-layer="580" from-port="2" to-layer="590" to-port="0"/>
		<edge from-layer="581" from-port="0" to-layer="584" to-port="0"/>
		<edge from-layer="582" from-port="0" to-layer="583" to-port="1"/>
		<edge from-layer="583" from-port="2" to-layer="584" to-port="1"/>
		<edge from-layer="584" from-port="2" to-layer="589" to-port="0"/>
		<edge from-layer="585" from-port="0" to-layer="588" to-port="0"/>
		<edge from-layer="586" from-port="0" to-layer="587" to-port="1"/>
		<edge from-layer="587" from-port="2" to-layer="588" to-port="1"/>
		<edge from-layer="588" from-port="2" to-layer="589" to-port="1"/>
		<edge from-layer="589" from-port="2" to-layer="590" to-port="1"/>
		<edge from-layer="590" from-port="2" to-layer="591" to-port="0"/>
		<edge from-layer="591" from-port="1" to-layer="593" to-port="0"/>
		<edge from-layer="592" from-port="0" to-layer="593" to-port="1"/>
		<edge from-layer="593" from-port="2" to-layer="595" to-port="0"/>
		<edge from-layer="594" from-port="0" to-layer="595" to-port="1"/>
		<edge from-layer="595" from-port="2" to-layer="599" to-port="0"/>
		<edge from-layer="596" from-port="0" to-layer="599" to-port="1"/>
		<edge from-layer="597" from-port="0" to-layer="599" to-port="2"/>
		<edge from-layer="598" from-port="0" to-layer="599" to-port="3"/>
		<edge from-layer="599" from-port="4" to-layer="600" to-port="1"/>
		<edge from-layer="600" from-port="2" to-layer="669" to-port="0"/>
		<edge from-layer="600" from-port="2" to-layer="602" to-port="0"/>
		<edge from-layer="601" from-port="0" to-layer="602" to-port="1"/>
		<edge from-layer="602" from-port="2" to-layer="604" to-port="0"/>
		<edge from-layer="603" from-port="0" to-layer="604" to-port="1"/>
		<edge from-layer="604" from-port="2" to-layer="606" to-port="0"/>
		<edge from-layer="605" from-port="0" to-layer="606" to-port="1"/>
		<edge from-layer="606" from-port="3" to-layer="608" to-port="0"/>
		<edge from-layer="607" from-port="0" to-layer="608" to-port="1"/>
		<edge from-layer="608" from-port="2" to-layer="610" to-port="0"/>
		<edge from-layer="608" from-port="2" to-layer="636" to-port="0"/>
		<edge from-layer="609" from-port="0" to-layer="610" to-port="1"/>
		<edge from-layer="610" from-port="2" to-layer="611" to-port="0"/>
		<edge from-layer="611" from-port="1" to-layer="633" to-port="0"/>
		<edge from-layer="611" from-port="1" to-layer="635" to-port="0"/>
		<edge from-layer="611" from-port="1" to-layer="612" to-port="0"/>
		<edge from-layer="612" from-port="1" to-layer="614" to-port="0"/>
		<edge from-layer="613" from-port="0" to-layer="614" to-port="1"/>
		<edge from-layer="614" from-port="2" to-layer="648" to-port="0"/>
		<edge from-layer="615" from-port="0" to-layer="616" to-port="1"/>
		<edge from-layer="616" from-port="2" to-layer="618" to-port="0"/>
		<edge from-layer="617" from-port="0" to-layer="618" to-port="1"/>
		<edge from-layer="618" from-port="2" to-layer="620" to-port="0"/>
		<edge from-layer="619" from-port="0" to-layer="620" to-port="1"/>
		<edge from-layer="620" from-port="2" to-layer="622" to-port="0"/>
		<edge from-layer="621" from-port="0" to-layer="622" to-port="1"/>
		<edge from-layer="622" from-port="2" to-layer="623" to-port="0"/>
		<edge from-layer="623" from-port="1" to-layer="625" to-port="0"/>
		<edge from-layer="624" from-port="0" to-layer="625" to-port="1"/>
		<edge from-layer="625" from-port="2" to-layer="627" to-port="0"/>
		<edge from-layer="626" from-port="0" to-layer="627" to-port="1"/>
		<edge from-layer="627" from-port="2" to-layer="629" to-port="0"/>
		<edge from-layer="628" from-port="0" to-layer="629" to-port="1"/>
		<edge from-layer="629" from-port="2" to-layer="631" to-port="0"/>
		<edge from-layer="630" from-port="0" to-layer="631" to-port="1"/>
		<edge from-layer="631" from-port="2" to-layer="641" to-port="0"/>
		<edge from-layer="632" from-port="0" to-layer="633" to-port="1"/>
		<edge from-layer="633" from-port="2" to-layer="640" to-port="0"/>
		<edge from-layer="634" from-port="0" to-layer="635" to-port="1"/>
		<edge from-layer="635" from-port="2" to-layer="636" to-port="1"/>
		<edge from-layer="636" from-port="2" to-layer="638" to-port="0"/>
		<edge from-layer="636" from-port="2" to-layer="651" to-port="0"/>
		<edge from-layer="637" from-port="0" to-layer="638" to-port="1"/>
		<edge from-layer="638" from-port="2" to-layer="640" to-port="1"/>
		<edge from-layer="639" from-port="0" to-layer="640" to-port="2"/>
		<edge from-layer="640" from-port="3" to-layer="641" to-port="1"/>
		<edge from-layer="640" from-port="3" to-layer="672" to-port="1"/>
		<edge from-layer="641" from-port="2" to-layer="643" to-port="0"/>
		<edge from-layer="642" from-port="0" to-layer="643" to-port="1"/>
		<edge from-layer="643" from-port="2" to-layer="645" to-port="0"/>
		<edge from-layer="643" from-port="3" to-layer="655" to-port="0"/>
		<edge from-layer="644" from-port="0" to-layer="645" to-port="1"/>
		<edge from-layer="645" from-port="2" to-layer="647" to-port="0"/>
		<edge from-layer="646" from-port="0" to-layer="647" to-port="1"/>
		<edge from-layer="647" from-port="2" to-layer="648" to-port="1"/>
		<edge from-layer="648" from-port="2" to-layer="650" to-port="0"/>
		<edge from-layer="649" from-port="0" to-layer="650" to-port="1"/>
		<edge from-layer="650" from-port="2" to-layer="661" to-port="0"/>
		<edge from-layer="651" from-port="1" to-layer="653" to-port="0"/>
		<edge from-layer="652" from-port="0" to-layer="653" to-port="1"/>
		<edge from-layer="653" from-port="2" to-layer="658" to-port="0"/>
		<edge from-layer="654" from-port="0" to-layer="655" to-port="1"/>
		<edge from-layer="655" from-port="2" to-layer="657" to-port="0"/>
		<edge from-layer="656" from-port="0" to-layer="657" to-port="1"/>
		<edge from-layer="657" from-port="2" to-layer="658" to-port="1"/>
		<edge from-layer="658" from-port="2" to-layer="660" to-port="0"/>
		<edge from-layer="659" from-port="0" to-layer="660" to-port="1"/>
		<edge from-layer="660" from-port="2" to-layer="661" to-port="1"/>
		<edge from-layer="661" from-port="2" to-layer="663" to-port="0"/>
		<edge from-layer="662" from-port="0" to-layer="663" to-port="1"/>
		<edge from-layer="663" from-port="2" to-layer="665" to-port="0"/>
		<edge from-layer="664" from-port="0" to-layer="665" to-port="1"/>
		<edge from-layer="665" from-port="2" to-layer="667" to-port="0"/>
		<edge from-layer="666" from-port="0" to-layer="667" to-port="1"/>
		<edge from-layer="667" from-port="2" to-layer="677" to-port="0"/>
		<edge from-layer="668" from-port="0" to-layer="669" to-port="1"/>
		<edge from-layer="669" from-port="2" to-layer="671" to-port="0"/>
		<edge from-layer="670" from-port="0" to-layer="671" to-port="1"/>
		<edge from-layer="671" from-port="2" to-layer="672" to-port="0"/>
		<edge from-layer="672" from-port="2" to-layer="674" to-port="0"/>
		<edge from-layer="672" from-port="2" to-layer="705" to-port="0"/>
		<edge from-layer="673" from-port="0" to-layer="674" to-port="1"/>
		<edge from-layer="674" from-port="2" to-layer="676" to-port="0"/>
		<edge from-layer="675" from-port="0" to-layer="676" to-port="1"/>
		<edge from-layer="676" from-port="2" to-layer="677" to-port="1"/>
		<edge from-layer="677" from-port="2" to-layer="679" to-port="0"/>
		<edge from-layer="678" from-port="0" to-layer="679" to-port="1"/>
		<edge from-layer="679" from-port="2" to-layer="681" to-port="0"/>
		<edge from-layer="680" from-port="0" to-layer="681" to-port="1"/>
		<edge from-layer="681" from-port="2" to-layer="736" to-port="0"/>
		<edge from-layer="682" from-port="0" to-layer="683" to-port="1"/>
		<edge from-layer="683" from-port="2" to-layer="685" to-port="0"/>
		<edge from-layer="684" from-port="0" to-layer="685" to-port="1"/>
		<edge from-layer="685" from-port="2" to-layer="686" to-port="0"/>
		<edge from-layer="686" from-port="1" to-layer="736" to-port="1"/>
		<edge from-layer="687" from-port="2" to-layer="689" to-port="0"/>
		<edge from-layer="687" from-port="2" to-layer="692" to-port="0"/>
		<edge from-layer="688" from-port="0" to-layer="689" to-port="1"/>
		<edge from-layer="689" from-port="2" to-layer="729" to-port="0"/>
		<edge from-layer="690" from-port="0" to-layer="716" to-port="0"/>
		<edge from-layer="691" from-port="0" to-layer="692" to-port="1"/>
		<edge from-layer="692" from-port="2" to-layer="696" to-port="0"/>
		<edge from-layer="693" from-port="0" to-layer="696" to-port="1"/>
		<edge from-layer="694" from-port="0" to-layer="696" to-port="2"/>
		<edge from-layer="695" from-port="0" to-layer="696" to-port="3"/>
		<edge from-layer="696" from-port="4" to-layer="698" to-port="0"/>
		<edge from-layer="697" from-port="0" to-layer="698" to-port="1"/>
		<edge from-layer="698" from-port="2" to-layer="700" to-port="0"/>
		<edge from-layer="699" from-port="0" to-layer="700" to-port="1"/>
		<edge from-layer="700" from-port="2" to-layer="702" to-port="0"/>
		<edge from-layer="701" from-port="0" to-layer="702" to-port="1"/>
		<edge from-layer="702" from-port="2" to-layer="703" to-port="0"/>
		<edge from-layer="703" from-port="1" to-layer="709" to-port="0"/>
		<edge from-layer="703" from-port="1" to-layer="723" to-port="0"/>
		<edge from-layer="704" from-port="0" to-layer="705" to-port="1"/>
		<edge from-layer="705" from-port="2" to-layer="724" to-port="2"/>
		<edge from-layer="705" from-port="2" to-layer="724" to-port="1"/>
		<edge from-layer="705" from-port="2" to-layer="707" to-port="0"/>
		<edge from-layer="706" from-port="0" to-layer="707" to-port="1"/>
		<edge from-layer="707" from-port="2" to-layer="708" to-port="0"/>
		<edge from-layer="707" from-port="2" to-layer="724" to-port="0"/>
		<edge from-layer="708" from-port="1" to-layer="709" to-port="1"/>
		<edge from-layer="709" from-port="2" to-layer="711" to-port="0"/>
		<edge from-layer="710" from-port="0" to-layer="711" to-port="1"/>
		<edge from-layer="711" from-port="2" to-layer="713" to-port="0"/>
		<edge from-layer="712" from-port="0" to-layer="713" to-port="1"/>
		<edge from-layer="713" from-port="2" to-layer="715" to-port="0"/>
		<edge from-layer="714" from-port="0" to-layer="715" to-port="1"/>
		<edge from-layer="715" from-port="2" to-layer="716" to-port="1"/>
		<edge from-layer="716" from-port="2" to-layer="728" to-port="0"/>
		<edge from-layer="717" from-port="0" to-layer="718" to-port="1"/>
		<edge from-layer="718" from-port="2" to-layer="722" to-port="0"/>
		<edge from-layer="719" from-port="0" to-layer="722" to-port="1"/>
		<edge from-layer="720" from-port="0" to-layer="722" to-port="2"/>
		<edge from-layer="721" from-port="0" to-layer="722" to-port="3"/>
		<edge from-layer="722" from-port="4" to-layer="723" to-port="1"/>
		<edge from-layer="723" from-port="2" to-layer="725" to-port="0"/>
		<edge from-layer="724" from-port="3" to-layer="725" to-port="1"/>
		<edge from-layer="725" from-port="2" to-layer="727" to-port="0"/>
		<edge from-layer="726" from-port="0" to-layer="727" to-port="1"/>
		<edge from-layer="727" from-port="2" to-layer="728" to-port="1"/>
		<edge from-layer="728" from-port="2" to-layer="729" to-port="1"/>
		<edge from-layer="728" from-port="2" to-layer="729" to-port="2"/>
		<edge from-layer="729" from-port="3" to-layer="731" to-port="0"/>
		<edge from-layer="730" from-port="0" to-layer="731" to-port="1"/>
		<edge from-layer="731" from-port="2" to-layer="735" to-port="0"/>
		<edge from-layer="732" from-port="0" to-layer="735" to-port="1"/>
		<edge from-layer="733" from-port="0" to-layer="735" to-port="2"/>
		<edge from-layer="734" from-port="0" to-layer="735" to-port="3"/>
		<edge from-layer="735" from-port="4" to-layer="736" to-port="2"/>
		<edge from-layer="736" from-port="3" to-layer="737" to-port="0"/>
	</edges>
	<meta_data>
		<MO_version value="2021.4.0-3839-cd81789d294-releases/2021/4"/>
		<cli_parameters>
			<data_type value="FP32"/>
			<disable_nhwc_to_nchw value="False"/>
			<disable_resnet_optimization value="False"/>
			<disable_weights_compression value="False"/>
			<enable_concat_optimization value="False"/>
			<extensions value="DIR"/>
			<framework value="tf"/>
			<freeze_placeholder_with_value value="{}"/>
			<generate_deprecated_IR_V7 value="False"/>
			<input_model_is_text value="False"/>
			<keep_shape_ops value="True"/>
			<legacy_ir_generation value="False"/>
			<log_level value="ERROR"/>
			<mean_scale_values value="{}"/>
			<mean_values value="()"/>
			<model_name value="saved_model"/>
			<output_dir value="DIR"/>
			<placeholder_data_types value="{}"/>
			<progress value="False"/>
			<reverse_input_channels value="False"/>
			<saved_model_dir value="DIR"/>
			<scale_values value="()"/>
			<silent value="False"/>
			<static_shape value="False"/>
			<stream_output value="False"/>
			<transform value=""/>
			<unset unset_cli_parameters="batch, disable_fusing, disable_gfusing, finegrain_fusing, input, input_checkpoint, input_meta_graph, input_model, input_shape, move_to_preprocess, output, placeholder_shapes, saved_model_tags, scale, tensorboard_logdir, tensorflow_custom_layer_libraries, tensorflow_custom_operations_config_update, tensorflow_object_detection_api_pipeline_config, tensorflow_use_custom_operations_config, transformations_config"/>
		</cli_parameters>
	</meta_data>
</net>
